src/yihao_0.pth (torch, 588600 bytes, 10 tensors)

weight f4 [32, 3, 5, 5]
0	0xbda910f0	-0.08255184
1	0xbd6887db	-0.056770187
2	0x3c8f7411	0.0175114
3	0xbd073122	-0.03300584
4	0xbcdcab0f	-0.026937036
5	0xbd1225aa	-0.03568045
6	0x3cd07380	0.0254457
7	0x3dda9a25	0.10673932
8	0xbd261015	-0.04054268
9	0xbd93371c	-0.07188246
10	0x3d9e3c15	0.077263035
11	0x3d07b87a	0.033134915
12	0xbdc89cb4	-0.09795514
13	0xbd319b09	-0.043360744
14	0xbddf5587	-0.10904985
15	0x3c174cc4	0.009234611
16	0x3db58550	0.08863318
17	0xbda0cd3b	-0.078516446
18	0x3de5502d	0.11196933
19	0x3bfc4b28	0.007699389
20	0x3db28392	0.08716501
21	0x3ad45c4f	0.0016201827
22	0xbd01ee65	-0.03172149
23	0x3ddf8fbf	0.10916089
24	0x3d4b1a2a	0.0495855
25	0x3dc96c55	0.09835116
26	0x3d323ea8	0.043516785
27	0xbce9b648	-0.028529301
28	0x3d6604d8	0.056156963
29	0xbd6079b4	-0.054803565
30	0x3d691e9e	0.056913964
31	0x3dc6afdd	0.09701512
32	0x3d3f76c6	0.04674413
33	0x3d96ad95	0.07357327
34	0xbcc7c89b	-0.024387648
35	0x3db9157f	0.09037303
36	0x3b5abf68	0.0033378247
37	0x3dc77337	0.09738772
38	0x3c984bac	0.01859077
39	0x3dc5d176	0.09659092
40	0xbdd4b065	-0.10385207
41	0x3b0141a7	0.001972297
42	0x3dd710f9	0.10501284
43	0x3dd7dde1	0.10540367
44	0x3da8ecae	0.08248268
45	0x3d5428f5	0.051796872
46	0xbcebea14	-0.02879814
47	0x3c41aaf2	0.011820542
48	0x3d3a58c3	0.045494806
49	0xbd01512e	-0.03157156
50	0x3c129923	0.008947643
51	0x3dd0f5f4	0.10203162
52	0xbd870f24	-0.06594685
53	0x3d493ba0	0.04912913
54	0xbd9649e0	-0.07338309
55	0x3dc33134	0.09530869
56	0xbc0591f9	-0.008152478
57	0x3d84b7cc	0.06480369
58	0x3dcd25a9	0.10016949
59	0x3d66f228	0.056383282
60	0xbdc7ccf9	-0.09755892
61	0x3d7a47c6	0.061103605
62	0xbd2dd7ba	-0.04244206
63	0x3b8d6161	0.004314587
64	0xbc990e07	-0.018683447
65	0x3dc0ec90	0.09420121
66	0x3d0358a2	0.03206695
67	0xbcc9fcdf	-0.024656711
68	0xbde135a9	-0.10996563
69	0xbda5927f	-0.080845825
70	0x3dd05872	0.101731196
71	0xbb702efa	-0.0036649094
72	0xbd4f4e71	-0.050611917
73	0xbbdfb7ba	-0.006827322
74	0x3d9f08f5	0.0776538
75	0xbd716591	-0.058934752
76	0x3d34f13c	0.04417537
77	0x3db87fe2	0.09008767
78	0x3cd64582	0.02615619
79	0xbddcfbaa	-0.107901886
80	0xbda268ae	-0.07930122
81	0xbd04830d	-0.032351542
82	0xbd94b568	-0.07261163
83	0xbd7e4510	-0.062077582
84	0xbd2bfe94	-0.04199083
85	0x3db4f4d0	0.08835757
86	0x3d9f1846	0.07768302
87	0xbd5e0c23	-0.054210793
88	0xbd984b78	-0.074362695
89	0x3dcccf61	0.10000492
90	0xbcca0cbd	-0.024664277
91	0x3ddfc51b	0.10926267
92	0xbc90b8ba	-0.01766621
93	0xbd251318	-0.040301412
94	0xbddb3255	-0.107029594
95	0x3dd85da1	0.10564733
96	0x3c87f1dd	0.016594822
97	0xbda3492d	-0.079729415
98	0x3d837b8f	0.06420051
99	0xbdc3c71f	-0.09559464
100	0xbdc18bec	-0.09450516
101	0x3d8ac764	0.06776312
102	0x3c29ec74	0.010371316
103	0xbdeaedf5	-0.11471168
104	0xbcf39146	-0.029732358
105	0xbd56852a	-0.05237309
106	0xbb9bf755	-0.004759709
107	0x3d0b5674	0.034017995
108	0xbb83a86e	-0.004017881
109	0xbdb9687d	-0.09053133
110	0xbc05ed60	-0.00817427
111	0x3dc963ea	0.0983351
112	0x3d94e3ee	0.07270037
113	0xbd99e6e5	-0.07514743
114	0xbc29c7e6	-0.010362601
115	0x3de1b106	0.11020093
116	0xbd502a66	-0.050821684
117	0xbd2ab55b	-0.04167686
118	0xbc8ed952	-0.01743761
119	0xbc70abda	-0.01468941
120	0xbc95119a	-0.01819687
121	0xbd3c299e	-0.045938127
122	0xbcf41679	-0.029795872
123	0x3b88cc45	0.0041747415
124	0xbd03d941	-0.03218961
125	0x3c3cfca3	0.011534843
126	0x3d4262fd	0.047457684
127	0xbd3ebaae	-0.04656475
128	0x3d2e71d0	0.04258901
129	0x3d7c6e73	0.06162877
130	0xbd48ffe7	-0.049072172
131	0xbdcacb97	-0.09902113
132	0xbd3a3bd0	-0.045467198
133	0x3d2b9398	0.041888803
134	0xbdc20338	-0.0947327
135	0xbd17c68e	-0.03705459
136	0xbdd0e2dc	-0.1019952
137	0xbd1cd417	-0.038288202
138	0xbda1f716	-0.07908456
139	0x3b2236b4	0.0024751844
140	0xbb9e899d	-0.004838182
141	0xbdb48f7b	-0.08816429
142	0xbdc66c03	-0.0968857
143	0x3de4b032	0.11166419
144	0xbd24afe7	-0.040206816
145	0xbd3a3699	-0.045462225
146	0xbb80da6b	-0.0039322875
147	0xbd34e314	-0.04416187
148	0xbcbb8130	-0.02288875
149	0x38089f02	3.2573014e-05
150	0xbcdf6208	-0.027268425
151	0x3da2d111	0.079500325
152	0xba0ab8fb	-0.00052918465
153	0x3d9f1989	0.07768542
154	0xbda4fcb6	-0.08056013
155	0x3db8562a	0.090008095
156	0xbbbb77d8	-0.0057210736
157	0xbd7644c9	-0.060124192
158	0xbde23d7f	-0.11046886
159	0xbd418fd6	-0.047256313
160	0xbd7501b9	-0.059816096
161	0x3cbd1a91	0.023083957
162	0xbcc89b96	-0.024488252
163	0x3cebb66c	0.028773509
164	0xbc7c3dc0	-0.015395582
165	0xbdba83ad	-0.091071464
166	0xbdde3361	-0.108496435
167	0xbdea3a5c	-0.114369124
168	0x3d17c2ab	0.037050884
169	0xbd0f638f	-0.035007056
170	0xbd7d02fd	-0.061770428
171	0x3da581a0	0.08081365
172	0xbd8b73ec	-0.0680922
173	0x3dda4fb4	0.106597334
174	0xbde1e6d8	-0.11030358
175	0xbc62271e	-0.013803272
176	0x3c8afbda	0.016965795
177	0x3d648167	0.05578747
178	0xbd3ba6b9	-0.045813296
179	0xbd740b27	-0.05958095
180	0x3d9b8303	0.07593348
181	0x3ccc4a87	0.024937881
182	0xbba26900	-0.0049563646
183	0xbd4a70de	-0.049424045
184	0x3cafbd3e	0.021452542
185	0xbdb942dd	-0.09045956
186	0x3dbd4f9f	0.09243702
187	0xbb23fb81	-0.0025021734
188	0xbdc5c363	-0.09656408
189	0x3d831655	0.06400744
190	0x3d8d5fb7	0.06903022
191	0x3d621490	0.05519539
192	0xbd75de22	-0.060026295
193	0xbd3c8809	-0.04602817
194	0xbde4099d	-0.11134646
195	0xbddb50e9	-0.10708792
196	0x3d947385	0.07248596
197	0xbceda3a3	-0.029008692
198	0xbdebbc85	-0.115105666
199	0x3d642d6d	0.055707384
200	0x3c53cd66	0.012927389
201	0x3c32c540	0.010911286
202	0x3d7277ad	0.059196163
203	0x3d0dbba4	0.034602776
204	0x3da38a57	0.079853706
205	0x3d482e4f	0.04887229
206	0x3d621de9	0.055204306
207	0xbd491074	-0.049087957
208	0x3d81f4b7	0.06345504
209	0xbc7d10f7	-0.015445939
210	0xbde61f28	-0.11236411
211	0x3dd9cb98	0.106345356
212	0xbd23d220	-0.039995313
213	0xbd2c6828	-0.04209152
214	0xbdc9f183	-0.09860518
215	0x3c1a479c	0.009416487
216	0xbc67bdf8	-0.014144413
217	0xbcbb3c7e	-0.022855993
218	0xbda43214	-0.08017364
219	0x3dc6336a	0.09677775
220	0xbd937114	-0.07199302
221	0x3d99235a	0.07477446
222	0xbd751551	-0.059834782
223	0x3dcc57d7	0.099776916
224	0x3c1cc050	0.009567335
225	0x3d3a2a80	0.045450687
226	0x3d5a53b0	0.053302467
227	0xbd50e645	-0.051000852
228	0x3d772f6f	0.06034797
229	0x3dc610e5	0.09671191
230	0x3dcc7e0a	0.099849775
231	0xbd09f441	-0.033680204
232	0x3ca5ac7c	0.020223849
233	0x3dc27af9	0.094961114
234	0x3d9515ea	0.072795704
235	0xbd52a23e	-0.051424257
236	0xbbaed6b1	-0.005335652
237	0xbd9a9973	-0.07548799
238	0xbce49cf3	-0.02790687
239	0x3d4785c8	0.048711568
240	0xbd8332ca	-0.064061716
241	0xbd87ea37	-0.0663647
242	0xbcf29e3e	-0.029616471
243	0xbde99909	-0.11406142
244	0x3dad0777	0.084486894
245	0x3d28c777	0.04120585
246	0xbd268093	-0.04064996
247	0xbde9cec4	-0.114163905
248	0x3b1c3ca5	0.0023839858
249	0x3d3acee2	0.045607455
250	0xbd7e050b	-0.062016528
251	0xbb7171e3	-0.0036841563
252	0x3ddb51be	0.107089505
253	0x3d956171	0.07293976
254	0x3ce2faa0	0.027707398
255	0x3b4fefab	0.0031728547

bias f4 [32]
0	0xbdd47173	-0.10373201
1	0xbd2b4e9f	-0.041823026
2	0x3cd98422	0.026552264
3	0xbdcb05a4	-0.09913185
4	0x3d861d34	0.06548539
5	0xbdaf62c1	-0.08563758
6	0x3d1e28e6	0.038613223
7	0x3ca965bf	0.0206784
8	0x3ceea5bf	0.029131768
9	0xbd9363e4	-0.07196787
10	0xbd5d37f5	-0.054008443
11	0xbdbc981b	-0.09208699
12	0xbd0bfd3b	-0.034177046
13	0x3c722571	0.014779435
14	0x3d86403f	0.06555223
15	0x3d48c4f3	0.04901595
16	0xbde78e43	-0.11306431
17	0xbdb8b19a	-0.0901825
18	0x3dacb4aa	0.084328964
19	0x3d44bfb3	0.04803438
20	0x3d39a62d	0.045324493
21	0xbcbb3a87	-0.022855056
22	0x3d2271a3	0.039659154
23	0xbdd40de5	-0.10354213
24	0x3dab1924	0.083544046
25	0xbc9e388f	-0.019314079
26	0x3d9e1232	0.07718314
27	0xbd26f631	-0.04076213
28	0x3ddbad67	0.10726433
29	0xbdbecc3d	-0.09316299
30	0x3dc627ed	0.09675584
31	0xbdd713eb	-0.10501846

weight f4 [32, 32, 5, 5]
0	0x3b844387	0.00403637
1	0x3c1eeb8e	0.009699715
2	0xbc3f52d6	-0.0116774645
3	0x3ce47539	0.027887927
4	0xbbd6f1e9	-0.0065595997
5	0x3c24b082	0.010051848
6	0x3c276191	0.010216133
7	0xbcf6634c	-0.030076645
8	0xbc3c05cc	-0.011475991
9	0x3cece805	0.02891923
10	0xbc0034e8	-0.007825114
11	0x3c8af372	0.016961787
12	0x3cf1d8ff	0.029522417
13	0x3c798f54	0.015231926
14	0x3c8827cd	0.016620541
15	0xbcb11644	-0.021617062
16	0xbc2eba88	-0.01066459
17	0xbcdfc183	-0.027313953
18	0x3caf1c62	0.021375839
19	0xbd0df62e	-0.034658603
20	0xbb7ff610	-0.0039056577
21	0xbbbe3a93	-0.0058053224
22	0x3d1098a4	0.03530182
23	0x3cc4a96f	0.024006573
24	0x3bcf6ce3	0.006330119
25	0x3c811c82	0.015760664
26	0x3c9bcb24	0.019017763
27	0x3c961568	0.018320754
28	0xbb72b764	-0.003703558
29	0xbb131b50	-0.00224467
30	0xbcd06f2e	-0.02544364
31	0x3c4f9046	0.012668675
32	0xbd01f9fc	-0.031732544
33	0xbc8fd2f8	-0.017556652
34	0x3d034d25	0.032055993
35	0x3bc35d9b	0.0059620864
36	0xbb8f6379	-0.0043758717
37	0x3cbb23d6	0.022844236
38	0xbbaacc91	-0.0052123745
39	0xbc960971	-0.018315049
40	0x3ca89ae5	0.020581672
41	0xb9309abd	-0.00016842312
42	0xbb32a34f	-0.0027257984
43	0x3b312960	0.0027032718
44	0x3c8c14b5	0.017099718
45	0xbd06501d	-0.032791246
46	0xbb74a36e	-0.0037328857
47	0xbc5bb22d	-0.01340918
48	0x3cf64e25	0.03006656
49	0xbcbab7da	-0.022792745
50	0x3ce6700f	0.028129606
51	0xbc29d3b8	-0.010365419
52	0x3c94de21	0.018172326
53	0x3bb7e309	0.0056117815
54	0x3b9c271d	0.004765405
55	0x3c99d29a	0.01877718
56	0x3c6610cd	0.014042092
57	0xbcb267a5	-0.021777937
58	0x3cfbc6b9	0.030734407
59	0x3cfaf11b	0.030632546
60	0xbbece818	-0.007229816
61	0x3c975242	0.01847184
62	0xbccd8641	-0.025088431
63	0x3ab647fc	0.0013906951
64	0x3a39d728	0.0007089251
65	0xbb183120	-0.002322264
66	0xbbd96fe8	-0.0066356547
67	0x3cf886b4	0.030337669
68	0x3bd9b48a	0.0066438364
69	0xbcbe0682	-0.023196463
70	0x3cb0c313	0.021577394
71	0x3baef1b2	0.005338871
72	0x3c3c2887	0.011484272
73	0xbcf89e1a	-0.030348826
74	0x3c47addc	0.012187447
75	0xbce6c810	-0.02817157
76	0xbcb1a72d	-0.021686161
77	0xbd0708cc	-0.032967374
78	0xbce1e7f1	-0.027576419
79	0xbcbff882	-0.023433927
80	0xba132a10	-0.0005613873
81	0xbc68f6da	-0.01421901
82	0x3c4d886b	0.012544732
83	0x3b97c52b	0.0046316586
84	0x3cffac42	0.031210069
85	0xbc024066	-0.007949924
86	0x3adfa85e	0.0017063727
87	0xbcb06b23	-0.021535462
88	0x3bd53089	0.00650603
89	0xba188e32	-0.00058195286
90	0xbced3ee1	-0.028960647
91	0xbc944f91	-0.018104346
92	0x3c4edd44	0.012625996
93	0xbcbafce6	-0.02282567
94	0x3c140899	0.009035253
95	0xbb655f05	-0.0034999263
96	0x3ca19eff	0.019729136
97	0x3cac91d2	0.021065626
98	0xbce3a0d1	-0.027786644
99	0xbc517b6a	-0.012785772
100	0x3d0c36ea	0.034232058
101	0xbc159046	-0.009128636
102	0x3ccfba6b	0.025357446
103	0x3cb83b8e	0.022489335
104	0xbc135140	-0.0089915395
105	0x3c2cd17b	0.010547991
106	0x3d0a25b7	0.033727374
107	0xbcc19a41	-0.023633124
108	0xbb58ab6c	-0.003306116
109	0xbc703825	-0.014661823
110	0xbce54194	-0.027985372
111	0x3cd015c1	0.025400998
112	0x3b2d7eea	0.0026473352
113	0xbc009057	-0.007846913
114	0x3ce416da	0.027842928
115	0xbbdd791a	-0.006758821
116	0x3c140592	0.009034531
117	0x3c8183aa	0.015809853
118	0xbad790ef	-0.0016446392
119	0x3bff3d30	0.0077892765
120	0x3bf243df	0.007393345
121	0x3d0dbb06	0.034602188
122	0xbc8f74f6	-0.017511826
123	0x3c59286d	0.013254267
124	0xbbe43ee9	-0.0069655073
125	0xbc62c92a	-0.013841907
126	0xbcf2e8c7	-0.029652013
127	0x3afa96bc	0.0019118409
128	0xbc3e871d	-0.011628893
129	0x3c6771e9	0.014126279
130	0x3ce4e3d0	0.02794066
131	0x3ca20f84	0.019782789
132	0xbcd7bff0	-0.02633664
133	0x3bfd0efe	0.0077227345
134	0xbc226c2c	-0.0099134855
135	0x3cff9510	0.031199008
136	0x3c01cf1b	0.007922913
137	0x3c822c7d	0.015890354
138	0xbc6b16bc	-0.014348682
139	0x3cc245c7	0.023714913
140	0xbcae2bcc	-0.021261118
141	0x3c757853	0.014982301
142	0x3c3bcf58	0.011463009
143	0x3cd0dd4f	0.025496153
144	0x3c62526f	0.013813599
145	0x3bf1d0b8	0.0073796175
146	0xbd024ff4	-0.03181453
147	0x3c64fe5a	0.013976658
148	0x3ce80f09	0.028327482
149	0xbc704ff3	-0.014667499
150	0x3c944ebd	0.018103952
151	0x3cda46bc	0.026645057
152	0xbcd7a085	-0.026321659
153	0xbc74d054	-0.014942247
154	0xbc952ec4	-0.018210776
155	0x3d07dd89	0.033170257
156	0xbcd00a4e	-0.025395539
157	0x3c482a37	0.012217096
158	0xbc34b808	-0.011030205
159	0x3be64b56	0.0070280237
160	0x3a987a87	0.0011633196
161	0x3ba3d90a	0.0050002383
162	0x3ab43e00	0.0013751388
163	0x3cddf7c1	0.027095677
164	0x395f78e8	0.00021311978
165	0xbd002b42	-0.031291254
166	0xbc83a078	-0.016067728
167	0x3c26ded0	0.010184959
168	0xbcc6fe67	-0.02429123
169	0x3ce20077	0.027588112
170	0xbceaf820	-0.028682768
171	0x3c759cc1	0.014990986
172	0xbcbb8aa7	-0.022893263
173	0x3cf5203f	0.029922603
174	0xbc95ad7a	-0.018271197
175	0x3cb08864	0.021549411
176	0xbcace5fc	-0.021105759
177	0x3c71c807	0.014757163
178	0xbc74f73b	-0.014951522
179	0x3b7d6ea2	0.0038670679
180	0xbc866c7e	-0.016409155
181	0xbd06a9fc	-0.032876953
182	0x3bee2ed1	0.0072687645
183	0x3c0525e3	0.008126709
184	0x3b03a700	0.0020088553
185	0x3d02d8da	0.031945087
186	0x3c8efc0a	0.017454166
187	0x3c542860	0.012949079
188	0x3cdf20b0	0.027237266
189	0x3c4dc05a	0.012558067
190	0x3c422380	0.011849284
191	0x3cf4391d	0.02981239
192	0x3c601806	0.013677603
193	0x3cdd4bc6	0.02701367
194	0x3cca6ca6	0.02471001
195	0x3c99c178	0.01876901
196	0x3c9e8725	0.019351551
197	0xbd0f059f	-0.03491747
198	0x3d099fba	0.033599593
199	0xbd074963	-0.03302897
200	0xbcb0943b	-0.021555057
201	0x3b98c3c3	0.0046620085
202	0xbcdd9e71	-0.02705309
203	0x3d01fba9	0.031734142
204	0xbccc9b6a	-0.024976451
205	0x3ce1129c	0.027474694
206	0x3b45fad0	0.003020931
207	0xbb996cc6	-0.0046821563
208	0xbc694064	-0.014236543
209	0xbcc1c011	-0.023651155
210	0xbcfe5160	-0.031044662
211	0xbd0e7380	-0.034778118
212	0xbbd570f9	-0.0065137115
213	0x3b1ed5b5	0.0024236266
214	0x3d0d25f3	0.03446002
215	0xbcea6edc	-0.028617315
216	0xbcfb032f	-0.030641166
217	0xbbe194c3	-0.006884189
218	0xbc3ec454	-0.011643488
219	0xbcb8df56	-0.022567432
220	0x3bc863a1	0.0061153923
221	0x3d0b802a	0.034057774
222	0x3caf9e26	0.021437716
223	0xbca202aa	-0.019776661
224	0x3cf39ea1	0.029738726
225	0xbd10a21c	-0.03531085
226	0x3c16fa70	0.009214982
227	0x3c720e5b	0.01477393
228	0xbbfa968e	-0.007647342
229	0x3d04ea36	0.032449923
230	0x3cfd6449	0.030931609
231	0xbb0118f0	-0.0019698702
232	0x3cecbdac	0.028899036
233	0xbc650f94	-0.013980765
234	0x3c2f7545	0.010709112
235	0xbcd709af	-0.026249735
236	0xbd058270	-0.032595098
237	0x378d969c	1.6878643e-05
238	0xbbb6b4ad	-0.0055757375
239	0xbc680cae	-0.014163179
240	0xbc36acd5	-0.011149605
241	0x3a49c5cb	0.0007697015
242	0x3ce13111	0.027489217
243	0x3c949829	0.018138962
244	0x3b928a60	0.004472062
245	0xbb899815	-0.004199038
246	0xbd0f6b2a	-0.03501431
247	0x3bb51cbd	0.0055271075
248	0x3c6bf47f	0.014401554
249	0xbabc7699	-0.0014378607
250	0x3cc61361	0.024179162
251	0x3a65b389	0.00087624096
252	0x3c306a43	0.010767522
253	0x3c1648fa	0.009172672
254	0xbc2f1310	-0.010685697
255	0xbcc7fac1	-0.024411561

bias f4 [32]
0	0x3c739bec	0.014868718
1	0x3c38e81b	0.011285807
2	0x3d0e8ced	0.034802366
3	0x3c48b3b8	0.01224988
4	0xbc885b11	-0.016644986
5	0xbc21d47c	-0.00987732
6	0x3cf2264f	0.029559283
7	0x3cda8c97	0.026678367
8	0x3c77d551	0.015126542
9	0x3c6852b5	0.014179875
10	0xbc5bad05	-0.01340795
11	0x3ced7d23	0.028990334
12	0x3bca5448	0.006174598
13	0x3c5a85e4	0.013337586
14	0x3baa439c	0.005196048
15	0x3c2cc38b	0.010544668
16	0x3bf6db3f	0.0075334604
17	0x3ccc3f9f	0.02493268
18	0x3d089301	0.03334332
19	0xbd0e567b	-0.034750443
20	0xbcc45680	-0.023967028
21	0x3c507d38	0.012725167
22	0x3d0275f2	0.031850763
23	0xb9c26173	-0.0003707517
24	0xbc551991	-0.013006584
25	0xbb23d621	-0.0024999457
26	0xbc8244d0	-0.015901953
27	0x39e18333	0.00043013095
28	0xbcf8eacf	-0.030385403
29	0xbbde9a62	-0.006793306
30	0x3cf09847	0.029369486
31	0x3d0c26b4	0.034216598

weight f4 [64, 32, 5, 5]
0	0x3af5b700	0.0018746555
1	0xbcd230a2	-0.025657956
2	0x3abd485a	0.0014441118
3	0x3c23f25a	0.010006512
4	0x3b4c766b	0.0031198512
5	0x3ce1adb7	0.027548654
6	0x3c9f6fad	0.01946243
7	0x3c987c88	0.018614069
8	0xbcb72911	-0.02235845
9	0x3cd0c169	0.02548285
10	0xbd0fce66	-0.035108946
11	0xbc0f3234	-0.008739997
12	0x3ce6de99	0.028182315
13	0x3c6b1bc9	0.014349886
14	0x3c2f2669	0.01069031
15	0x3c9a1f6a	0.018813808
16	0xbcbf7d54	-0.02337519
17	0x3ce677a7	0.028133227
18	0xbc9849aa	-0.018589813
19	0xbc32f0ad	-0.010921639
20	0xbcbd4fe7	-0.02310939
21	0x3cc74d17	0.024328751
22	0xbd0d7db5	-0.03454371
23	0xbd05300d	-0.032516528
24	0xbcd5cf95	-0.02609996
25	0x3c845697	0.01615457
26	0x3cc55bb3	0.024091577
27	0xbcb24c27	-0.021764828
28	0x3c3aaec2	0.011394205
29	0x3ceb519e	0.028725442
30	0x3c2309e2	0.009951087
31	0xbc0e1d37	-0.008673958
32	0xbc292f37	-0.010326198
33	0xbd03d2ba	-0.032183386
34	0xbc9d2255	-0.01918141
35	0x3bac6ce1	0.005262003
36	0xbd0a6607	-0.033788707
37	0xbc6d4e2d	-0.014483971
38	0xbc78c20d	-0.015182984
39	0xbcd841ea	-0.026398618
40	0x3ce8b501	0.028406622
41	0xba0739b3	-0.0005158439
42	0x3d0cf0fe	0.034409516
43	0x3cd0738e	0.025445726
44	0x3c806ebf	0.015677808
45	0x3d040e2b	0.032240074
46	0x3cdfca64	0.027318187
47	0xbcea86f3	-0.028628802
48	0xbafea8c1	-0.0019428955
49	0xbc949cb0	-0.01814112
50	0x3c22fb9c	0.009947684
51	0xb9bf5a89	-0.00036497813
52	0x3d0f67cb	0.035011094
53	0xbb853e14	-0.004066238
54	0xbc69d292	-0.014271395
55	0x3cb05094	0.021522798
56	0x3bb1c4cb	0.005425071
57	0x3b7b4f91	0.0038346986
58	0xbbd7bcf1	-0.006583803
59	0x3cf4a6af	0.029864637
60	0xbc03c729	-0.008043089
61	0xbccf6083	-0.025314575
62	0x3c492d89	0.012278923
63	0xbb79396c	-0.003802861
64	0xbb9aba68	-0.0047219284
65	0xbd075c2b	-0.033046883
66	0x3cf0b9f9	0.029385554
67	0x3cd57407	0.026056303
68	0xbc857de9	-0.01629539
69	0x3c7527cb	0.014963101
70	0x3c92d268	0.017922595
71	0xbd0e361c	-0.03471957
72	0x3ca6be74	0.020354487
73	0x3c6b227b	0.0143514825
74	0x3cafd016	0.021461528
75	0x3cfb2f88	0.030662313
76	0xbbdd4ddc	-0.0067536663
77	0xbae3a98b	-0.0017369253
78	0x3c7a49a3	0.015276345
79	0xbc0c71a1	-0.008572013
80	0x3c073c2b	0.008254091
81	0xbbbfb5ee	-0.005850545
82	0xbcae7667	-0.021296693
83	0xbbf3b6c5	-0.0074375593
84	0x3cbc35f8	0.022974953
85	0xbc4fdf9a	-0.012687588
86	0xbd06feed	-0.03295796
87	0xbc3c8454	-0.011506159
88	0xba197ab7	-0.0005854773
89	0x3cbd7956	0.023129147
90	0x3b49d2be	0.0030795778
91	0x3cde8061	0.027160825
92	0x3aadc3cf	0.0013257208
93	0xbd058c02	-0.032604225
94	0x3c90971a	0.017650176
95	0xbc847d92	-0.016173158
96	0x3c035f02	0.008018257
97	0xbc2db186	-0.010601407
98	0xbcb441fa	-0.022004116
99	0x3be2c9ea	0.0069210427
100	0xbb34aecb	-0.0027570005
101	0x39d339fa	0.00040288252
102	0xbcbf8251	-0.02337757
103	0xbc2a1496	-0.010380885
104	0xbba1553f	-0.004923492
105	0xbd06c70b	-0.032904666
106	0xbb76dac2	-0.003766701
107	0xbd00e7e0	-0.031471133
108	0xbafa5655	-0.0019099215
109	0xbd0aa066	-0.033844374
110	0xbba51af4	-0.0050386135
111	0x3c0abd77	0.0084680235
112	0xbc059ac2	-0.008154573
113	0xbc3f9ff6	-0.0116958525
114	0xbd03e3e4	-0.032199755
115	0x3c6e2eb8	0.014537506
116	0x3cd16c4d	0.025564337
117	0xbc6bf58c	-0.014401805
118	0xbc99c505	-0.018770704
119	0x3c6c0873	0.014406311
120	0xbd0e8da4	-0.034803048
121	0xbcf63d12	-0.030058417
122	0x3c501476	0.012700191
123	0xbc9cb6db	-0.019130161
124	0x3cc03801	0.023464205
125	0x3c7b299a	0.015329743
126	0xbba2b9c1	-0.0049659912
127	0x3cc75a3e	0.024335023
128	0x3b0c7224	0.0021430338
129	0x3c9dec93	0.019277846
130	0xbd04a078	-0.032379597
131	0xbcad9414	-0.021188773
132	0x3ce1bf6c	0.027557097
133	0xbcc42590	-0.023943692
134	0xbc4297b7	-0.011876992
135	0x3cc09b23	0.023511475
136	0xbc69bc74	-0.014266122
137	0xbb16ea08	-0.0023027677
138	0xbcfb0ea7	-0.030646635
139	0xbccf67d2	-0.02531806
140	0xbcfbdf5f	-0.03074616
141	0xbbc6fdd1	-0.0060727377
142	0x3cfc9220	0.030831397
143	0x3d03ade7	0.032148268
144	0xbcb88d7b	-0.0225284
145	0xba5fa291	-0.0008530999
146	0xbc4114d3	-0.01178475
147	0xbc134e9d	-0.008990911
148	0xbce16ab8	-0.027516708
149	0x3c7ae7bd	0.01531404
150	0xbc8ee093	-0.01744107
151	0xbc8c2bd3	-0.01711074
152	0xbc7a3894	-0.015272278
153	0xbcb32cef	-0.021872012
154	0x3cba7da2	0.022764985
155	0xbd0af18b	-0.03392176
156	0x3cb62961	0.022236528
157	0x3b662f49	0.00351234
158	0x3d080369	0.033206377
159	0xbbb846d7	-0.005623679
160	0x3b887b52	0.0041650916
161	0x3bd3924d	0.0064566494
162	0x3c63df78	0.01390826
163	0x3c7b6ed2	0.015346246
164	0xbb39a8b8	-0.0028329324
165	0xbb6bf5ed	-0.0036004737
166	0x3c870ebe	0.016486522
167	0xba0d537c	-0.0005391163
168	0xbc28bbb5	-0.010298659
169	0x3ca3227f	0.01991391
170	0xbbad7d58	-0.005294483
171	0x3ce9f605	0.028559694
172	0x3d050ed2	0.032484837
173	0xbaa4bd3f	-0.0012568607
174	0x3bbb5e2e	0.005718014
175	0xbbbc4eec	-0.005746713
176	0x3b8ff913	0.0043937056
177	0x3cdd89f4	0.02704332
178	0xbbc43dca	-0.005988811
179	0xbd0e5908	-0.034752876
180	0x3b933ffe	0.0044937124
181	0x3c644d72	0.01393448
182	0xbb4a07b2	-0.003082734
183	0xbc30ea1d	-0.010798004
184	0x3caca95a	0.021076847
185	0xbcad896f	-0.021183698
186	0xbc3f5248	-0.011677332
187	0x3b2eb2e4	0.002665692
188	0x3cba0b1b	0.022710374
189	0xbd11f105	-0.035630245
190	0x3c9e973e	0.019359227
191	0xbba95f9a	-0.0051688673
192	0xbcd898c0	-0.026440024
193	0x3cc08e17	0.023505254
194	0x3ca789bc	0.020451419
195	0xbd0a33c3	-0.03374077
196	0xbc3abf43	-0.011398139
197	0xbce651c7	-0.028115166
198	0xbcbbeb35	-0.022939304
199	0xbceda0f8	-0.02900742
200	0x3d00ae55	0.031416256
201	0xbc644ecc	-0.013934802
202	0x3c06a653	0.008218366
203	0x3cb29227	0.021798206
204	0x3d037f66	0.03210392
205	0xbd087aa9	-0.033320103
206	0x3cf96473	0.030443406
207	0x3bb4b9a4	0.005515294
208	0x3b82bffa	0.0039901705
209	0x3c72b9cd	0.014814806
210	0xbca6ec55	-0.020376364
211	0x3cf6860b	0.030093214
212	0xbcd9fe1a	-0.026610423
213	0x3d0d2580	0.03445959
214	0x3c9cc25c	0.019135647
215	0xbd075fa5	-0.033050198
216	0x3bdc3fff	0.006721496
217	0x3cd54758	0.026034996
218	0x3bff778f	0.007796235
219	0x3c24c977	0.010057799
220	0xbd00b960	-0.031426787
221	0xbcf7f2ab	-0.03026708
222	0x3d07f8c5	0.03319623
223	0x3c4d8d86	0.012545949
224	0x3c3ea45d	0.011635867
225	0x3c5fc018	0.013656639
226	0x3ba18c32	0.0049300427
227	0xbbb9850b	-0.005661612
228	0x3c469651	0.012120799
229	0x3c1f929d	0.009739545
230	0x3ccc65fb	0.024950972
231	0xbb0cb780	-0.002147168
232	0xbc91581d	-0.017742211
233	0x3ca8dc09	0.020612733
234	0xbcf800d7	-0.030273838
235	0x3c261376	0.010136476
236	0xbbd96a8b	-0.0066350154
237	0xbc97856c	-0.018496238
238	0xbbb4a3b8	-0.005512681
239	0xbcd42461	-0.025896253
240	0x3bc7dfd2	0.0060996795
241	0x3c4f3f91	0.012649433
242	0x3cadbb6b	0.021207532
243	0x3d06a488	0.032871753
244	0x3bca48b3	0.006173217
245	0xbcda502a	-0.026649553
246	0xb99d5124	-0.00030005828
247	0x3b462891	0.0030236582
248	0xbcebeb9d	-0.028798873
249	0xbcdd3d40	-0.027006745
250	0xbc6ddbbe	-0.014517723
251	0x3ca27101	0.019829275
252	0x3cf2b11c	0.029625468
253	0xba46c273	-0.0007582076
254	0xbc2e0ab7	-0.010622672
255	0x3acd0dc6	0.0015644364

bias f4 [64]
0	0x3c528847	0.012849874
1	0x3b86476e	0.0040978706
2	0x3cecadf4	0.028891541
3	0xbcc63762	-0.02419633
4	0x3b3f7c46	0.002921836
5	0x3d07f5cc	0.033193395
6	0xbcfb697c	-0.030689947
7	0xbc8bb4d0	-0.017053992
8	0xbcd8b676	-0.026454192
9	0xbd06481b	-0.03278361
10	0xbc954e8d	-0.018225932
11	0x3d0b455a	0.034001686
12	0xbc82faf0	-0.015988797
13	0x3d078ae3	0.033091437
14	0x3c845da4	0.016157933
15	0x3b916724	0.004437344
16	0xbc1fe303	-0.009758714
17	0x3cf2ee4b	0.029654643
18	0x3bf91f04	0.0076025743
19	0xbcff8e09	-0.031195657
20	0x3b6dcb91	0.0036284665
21	0xba69eca4	-0.0008923507
22	0xbc14185f	-0.009039014
23	0xbca3a5a0	-0.019976437
24	0xbc377f1f	-0.011199742
25	0xbc827c12	-0.015928302
26	0x3d149353	0.03627331
27	0xbd0cfa51	-0.034418408
28	0xbd0b72f6	-0.034045182
29	0xbb80483a	-0.00391486
30	0xbbc3eba5	-0.0059790188
31	0xbbad6c37	-0.005292441
32	0xbb295394	-0.002583717
33	0x3cf52a30	0.029927343
34	0x3d028038	0.03186056
35	0xbc9d2a0b	-0.019185087
36	0x3c019a60	0.007910341
37	0xbaec7f82	-0.0018043371
38	0x3c327f69	0.010894635
39	0x3d0b981b	0.034080606
40	0x3c83306f	0.016014306
41	0x3ce12877	0.027485115
42	0x3c2d6d3a	0.010585124
43	0xbcb9cba6	-0.022680115
44	0x3caca718	0.02107577
45	0x3d0c4fd6	0.034255825
46	0x3b0bcc3a	0.0021331445
47	0xbbebcb57	-0.007195871
48	0x3ce33956	0.0277373
49	0xba89c330	-0.0010510441
50	0xbd113887	-0.0354543
51	0x3b2d7b49	0.0026471189
52	0xbce915ad	-0.028452719
53	0x3c299a5d	0.0103517445
54	0x3cbd0d01	0.02307749
55	0x3cc6ee8e	0.024283674
56	0xbccab114	-0.02474264
57	0xbc1af8b1	-0.009458707
58	0xbc4d2f62	-0.012523504
59	0xbd0f1ffc	-0.034942612
60	0xbceb0f80	-0.028693914
61	0x3cfb7633	0.03069601
62	0xbcb291ec	-0.021798097
63	0x3ce5203d	0.027969474

weight f4 [64, 1024]
0	0x3b69fd4c	0.0035703955
1	0xbbd8e4b9	-0.0066190627
2	0xbc1a4068	-0.00941477
3	0x3c9eaea3	0.019370383
4	0xbc92621d	-0.01786905
5	0xbbba6c4c	-0.0056891795
6	0xbceeccf2	-0.02915046
7	0xbce74a92	-0.0282338
8	0xbce557be	-0.02799594
9	0xbc5bb3ba	-0.013409549
10	0x3cd108a0	0.025516808
11	0xbcf0788e	-0.02935436
12	0x3cf87d11	0.030333074
13	0x3c2f3cd3	0.010695654
14	0x3bc8e5fd	0.0061309324
15	0x3cfd1cde	0.030897554
16	0x3be07b34	0.0068506245
17	0xbc8103b7	-0.015748842
18	0x3bb14d48	0.005410824
19	0x3c51df2c	0.012809556
20	0xbc8575e7	-0.016291572
21	0xbcc46948	-0.023975983
22	0x3b10f61b	0.0022119347
23	0xbcfa9a42	-0.030591134
24	0xbb2f9bde	-0.0026795785
25	0x3c8bbef6	0.01705883
26	0xbc726683	-0.0147949485
27	0xbc6a4caa	-0.014300505
28	0xbcdf6f9b	-0.027274897
29	0x3c5dbdd2	0.013534026
30	0x3cd5b79b	0.026088526
31	0xbc589f37	-0.0132215535
32	0xbc6ad84f	-0.014333799
33	0x3c927e68	0.01788254
34	0xbca6885e	-0.020328697
35	0x3c77d426	0.015126264
36	0x3caa6bd8	0.020803377
37	0xbbcb3548	-0.00620142
38	0xbbeb55ef	-0.007181875
39	0x3ca84811	0.020542176
40	0x3ca3cf28	0.01999624
41	0xbcf9268e	-0.030413892
42	0xba9aeadb	-0.001181926
43	0xbc56cb62	-0.013110014
44	0xbc316482	-0.010827186
45	0x3be990c9	0.0071278554
46	0x3ced8711	0.028995069
47	0xbceed412	-0.029153857
48	0x3c63d303	0.01390529
49	0xbccd555f	-0.025065122
50	0x3b9bed83	0.004758538
51	0xbca90f4b	-0.020637175
52	0x3c9eebfb	0.019399634
53	0x3c8608ff	0.016361712
54	0x3c327fdd	0.010894743
55	0xbc81b19c	-0.015831761
56	0xb8efa7e6	-0.000114276816
57	0xbcc896ae	-0.024485912
58	0xbcb4962c	-0.022044264
59	0x3c5a9542	0.01334125
60	0x3c707d14	0.014678258
61	0xbc88ef98	-0.01671581
62	0xbce19ad7	-0.027539654
63	0x3ceac15b	0.028656652
64	0xbccdd296	-0.02512483
65	0x3cee0848	0.029056683
66	0x3cfb9d13	0.030714547
67	0x3cb00695	0.021487514
68	0xbc7e85d6	-0.015534839
69	0x3c3f4191	0.011673347
70	0x3baec019	0.0053329584
71	0xbcf4381e	-0.029811915
72	0xbcb85ab6	-0.022504192
73	0xbcf39d5b	-0.029738119
74	0x3b920785	0.004456463
75	0xbb6a1256	-0.0035716495
76	0x3c8c9f16	0.017165702
77	0xbc27dab9	-0.010245019
78	0xbcd4c19b	-0.025971225
79	0xbb6e151f	-0.0036328507
80	0x3b19ba49	0.0023456982
81	0x3ca03c06	0.019559871
82	0x3b9ee752	0.004849353
83	0x3ced8b9a	0.028997231
84	0xbce9c906	-0.028538238
85	0xbceba5b2	-0.028765533
86	0xbcefd0f7	-0.029274447
87	0xbb78d9c2	-0.003797159
88	0xbce6fc57	-0.028196497
89	0xbca2d5b8	-0.0198773
90	0xbcbb1c6c	-0.022840701
91	0xbc94c3ab	-0.018159708
92	0xbc69a488	-0.014260419
93	0x3cadb432	0.021204088
94	0x3cd51c3a	0.026014436
95	0xbc3d47fe	-0.011552809
96	0xbb309343	-0.0026943244
97	0x3c62f232	0.013851689
98	0xbca4b6cd	-0.020106697
99	0x3cdbc104	0.026825435
100	0xbcc3340d	-0.02382853
101	0x3cda834e	0.02667394
102	0xbcfd65d4	-0.030932344
103	0xbca14ae0	-0.019689023
104	0xbc9e3639	-0.019312965
105	0xbc091b67	-0.00836835
106	0xbb1b15db	-0.002366415
107	0xbcd78bb6	-0.026311737
108	0x3c82270d	0.015887761
109	0xbc395638	-0.01131206
110	0x3ce913bd	0.028451795
111	0x3cee1adf	0.029065548
112	0xbc493e0d	-0.01228286
113	0xb9393fd5	-0.00017666754
114	0xbcdeb9e4	-0.027188249
115	0xbcdabe6a	-0.026702125
116	0x3ce5d5f5	0.028056124
117	0x3c2c0c75	0.010501017
118	0xbc036d83	-0.008021715
119	0x3c53f2fb	0.012936349
120	0xbcc6ce6f	-0.024268357
121	0x3cf42ce1	0.029806556
122	0xbcf66024	-0.03007514
123	0xbc5c70da	-0.01345464
124	0x3c8e8dd7	0.017401619
125	0xbc44f03f	-0.01202017
126	0xbcc824ba	-0.024431575
127	0x3cc81c2f	0.024427501
128	0x3cb113f8	0.021615967
129	0x3cad938a	0.021188516
130	0x3c574675	0.013139357
131	0xbcaa32c3	-0.020776158
132	0x3c976825	0.018482277
133	0xbbbbaa49	-0.0057270867
134	0xbca10afc	-0.019658558
135	0xbc204c8c	-0.009783875
136	0x3c3c1bed	0.011481267
137	0x3ca88bb8	0.020574436
138	0xbbdd105e	-0.006746336
139	0xbcba321e	-0.022728976
140	0x3b0ac941	0.0021177086
141	0xbca8c1a4	-0.020600148
142	0xbabe1bea	-0.0014504169
143	0x3cd1cce6	0.025610399
144	0x3cedbb09	0.02901985
145	0xbc362856	-0.011118015
146	0xbc66b78d	-0.014081848
147	0xbb2cc64b	-0.002636331
148	0xbc402a8c	-0.011728894
149	0x3cdeaae6	0.0271811
150	0xbc8aaa1f	-0.016926823
151	0xbc95046b	-0.018190583
152	0x3c366261	0.011131854
153	0xbbdba69a	-0.00670321
154	0x3ca2186c	0.019787036
155	0x3c6c34e0	0.014416903
156	0xbcdd3e2f	-0.02700719
157	0xbad6d2a4	-0.001638968
158	0x39941b12	0.0002824893
159	0xbcca8c2e	-0.024725046
160	0x3b9bc726	0.004753965
161	0x3cf76aa7	0.030202223
162	0xbcaf9dbb	-0.021437516
163	0x3c8cb1a7	0.017174555
164	0xbc4553a2	-0.012043865
165	0x3cb7762a	0.022395212
166	0xbc11a52f	-0.0088894805
167	0xb9eebe6c	-0.00045536773
168	0x3c84fffa	0.01623534
169	0x3b2320d6	0.0024891398
170	0x3c2f05bb	0.010682519
171	0xbb454ecf	-0.0030106788
172	0xba37f27d	-0.00070170296
173	0x3b70319d	0.0036650666
174	0x3c4ba81a	0.012430215
175	0x3be7feb8	0.0070799254
176	0x3c76f10f	0.015072121
177	0x3c5f398c	0.01362456
178	0x3ba2ce8f	0.0049684714
179	0xbc2b6f24	-0.01046351
180	0xbba94e5d	-0.0051668123
181	0xbb14cf40	-0.0022706538
182	0xbcf0a192	-0.029373918
183	0xbcc10fde	-0.023567136
184	0xbca39634	-0.019969083
185	0xbcd6c898	-0.026218697
186	0x3cc8a59c	0.024493031
187	0x3c3bf70e	0.011472477
188	0xbc94c0a7	-0.01815827
189	0xba116fbf	-0.00055479625
190	0x3c808742	0.015689496
191	0x3b99d5f8	0.0046946965
192	0xbb939f04	-0.00450504
193	0xbc0af795	-0.00848188
194	0x3c1790ee	0.0092508625
195	0x3bfc0ab1	0.007691704
196	0x3c85f34d	0.016351366
197	0xbbcc5fa9	-0.0062369895
198	0x3b34c788	0.002758475
199	0xbc81c9e3	-0.015843337
200	0xbc99ca34	-0.018773176
201	0x3ab68445	0.0013924917
202	0xbcadfcde	-0.02123874
203	0x3cff1767	0.031139089
204	0x3a73d436	0.0009301336
205	0xba83cafc	-0.0010055001
206	0x3baf6415	0.005352507
207	0x3bcfe57d	0.006344496
208	0xbc79fc1e	-0.015257863
209	0x3be36733	0.0069397925
210	0x3c33b58e	0.010968579
211	0xbc319892	-0.010839598
212	0x3c7c654c	0.01540501
213	0x3c7edcd6	0.015555581
214	0x3b277d33	0.0025556802
215	0x3bf120c8	0.007358644
216	0x3bbb0a04	0.005707981
217	0x3b1c3087	0.0023832635
218	0x3ca3a17e	0.019974466
219	0x3c436146	0.011925047
220	0xbb588d01	-0.003304303
221	0x3cbd4c1f	0.023107586
222	0xbc9d2d7f	-0.019186733
223	0xbc56ef5a	-0.013118589
224	0x3b904c20	0.004403606
225	0x3c3e125c	0.011601057
226	0x3cbc4117	0.022980256
227	0xbcc10917	-0.023563905
228	0x3c8c5833	0.0171319
229	0xbca6d6ce	-0.020366099
230	0xbc64e4ca	-0.013970563
231	0x3cbfb4db	0.023401668
232	0xbcf09424	-0.029367514
233	0xbcc18332	-0.02362213
234	0xbcc29d22	-0.023756567
235	0xbcdc3624	-0.026881285
236	0x3b19af8a	0.0023450577
237	0xbbb73be8	-0.005591858
238	0x3c0046df	0.007829397
239	0x3ce478ef	0.027889697
240	0xbc1ca52e	-0.009560866
241	0x3c864e3c	0.016394727
242	0xbc846a26	-0.016163897
243	0x3cb19ea3	0.02168209
244	0x3cdd933c	0.027047746
245	0xbcc3f271	-0.023919316
246	0x3ccfb3a2	0.02535421
247	0x3c883696	0.016627591
248	0x3c4c3bf2	0.012465464
249	0xbc63a209	-0.013893613
250	0xbc8e9baf	-0.01740822
251	0x3bb7c53f	0.0056082304
252	0x3c308fb8	0.010776453
253	0x3cb91fb6	0.022598129
254	0xbcf6072d	-0.030032719
255	0x3cc828ee	0.02443358

bias f4 [64]
0	0xbb027424	-0.001990565
1	0x3a33d877	0.0006860564
2	0x3cda505e	0.02664965
3	0x3b8b8a4c	0.0042584296
4	0xbc7c8f47	-0.015415019
5	0x3c29714d	0.010341954
6	0x3c6b5cac	0.014365356
7	0xbc770ee4	-0.015079234
8	0xbbdebbae	-0.0067972755
9	0x3cc97bd0	0.024595171
10	0x3b7d976f	0.0038694998
11	0x3be514b4	0.0069909934
12	0xbcd49afb	-0.025952807
13	0x3bb75865	0.0055952542
14	0x3ca790fc	0.020454876
15	0x3c002f08	0.007823713
16	0x3c8d6749	0.017261164
17	0xbba0347a	-0.004889068
18	0x3a27db4a	0.0006403221
19	0xbcbad7b0	-0.022807926
20	0x3c318fd6	0.010837516
21	0xbcb49385	-0.022042999
22	0xbca8deae	-0.020613994
23	0x3c53f380	0.012936473
24	0xbcce5ff2	-0.025192235
25	0x3c4870c8	0.01223392
26	0x3c720f7c	0.0147742
27	0xbcd0720a	-0.025445003
28	0xbcf6830e	-0.030091789
29	0x3cac1aa4	0.021008797
30	0xbbe62475	-0.007023389
31	0xbc77bd55	-0.015120824
32	0xbb72b4ca	-0.0037034028
33	0x3c809f3c	0.015700929
34	0xbc5c1c9d	-0.013434556
35	0xbc356f27	-0.011073864
36	0xbc98c006	-0.018646251
37	0x3ca7a49a	0.02046423
38	0xbcf8a4a2	-0.03035194
39	0x3c3d2782	0.011545064
40	0x3c88701d	0.016655022
41	0x3baca54e	0.0052687293
42	0xbc8d8c65	-0.01727886
43	0xbc1c1a79	-0.009527796
44	0xbc3e202e	-0.011604352
45	0x3c79b47c	0.015240785
46	0x3bfc72aa	0.0077040987
47	0xbc6070cf	-0.013698771
48	0x3ce5df15	0.028060475
49	0xbcdbe361	-0.026841821
50	0xba1c81df	-0.000597028
51	0x3b0650d7	0.0020494962
52	0xbcfa9df4	-0.030592896
53	0x3c877579	0.016535508
54	0xbc8f6ca5	-0.01750786
55	0xbc8568b0	-0.01628527
56	0xbced74d3	-0.02898637
57	0xbcbc1b0f	-0.022962121
58	0x3cd13740	0.02553904
59	0xbcc287f6	-0.023746472
60	0xbb7dcb84	-0.003872604
61	0xbc536a85	-0.012903814
62	0x3c2ca827	0.0105381375
63	0x3cd9450f	0.026522188

weight f4 [10, 64]
0	0xbde79b60	-0.11308932
1	0x3d8c4bc2	0.06850387
2	0x3dca8624	0.098888665
3	0x3ddcda94	0.10783878
4	0xbd0d549a	-0.03450451
5	0xbc262143	-0.010139766
6	0x3d26e2f2	0.040743776
7	0x3d9dd6e5	0.077070035
8	0x3c5352ef	0.012898191
9	0xbded5d38	-0.11590046
10	0xbd51ef97	-0.05125388
11	0x3be16c69	0.0068793786
12	0xbb41c890	-0.0029569007
13	0x3d8fd85c	0.07023689
14	0xbd76e268	-0.06027451
15	0x3b2f01d4	0.002670397
16	0x3dfff466	0.12497787
17	0xbdbfb00c	-0.0935975
18	0xbd8e3f62	-0.06945683
19	0x3df19b58	0.117972076
20	0x3da74701	0.0816784
21	0x3dd993c0	0.10623884
22	0xbd7b51c7	-0.061357286
23	0x3d87b767	0.06626778
24	0x3dfcfb68	0.123526394
25	0xbd4c5fcf	-0.049896058
26	0xbc2b8785	-0.010469322
27	0xbbbbe879	-0.0057345
28	0x3db2d26b	0.0873154
29	0xbd969244	-0.07352117
30	0xbdde4da3	-0.10854652
31	0x3d87ba2f	0.066273086
32	0xbcdaafe1	-0.026695194
33	0x3bf7e16b	0.0075647137
34	0x3ddae91a	0.10688992
35	0xbb20e4d5	-0.0024550457
36	0x3de79b2a	0.11308892
37	0x3d9ed79d	0.07755969
38	0xbd8bc473	-0.06824579
39	0xbda935e3	-0.08262231
40	0xbd0ace86	-0.033888362
41	0xbd0be5aa	-0.03415457
42	0xbc138ef6	-0.0090062525
43	0x3d7be7a4	0.061500207
44	0xbd6a6728	-0.057227284
45	0xbd8690ab	-0.06570562
46	0xbd43c041	-0.04779077
47	0x3c6d53ae	0.014485283
48	0xbcd799ae	-0.026318397
49	0x3cbf701f	0.023368893
50	0xbda33ea6	-0.079709336
51	0x3db0b80b	0.086288534
52	0x3ddd3a75	0.108021654
53	0xbde3f7a9	-0.11131222
54	0xbd86a1d6	-0.065738365
55	0xbbcbf2bd	-0.006224005
56	0xbdbef0f4	-0.09323302
57	0x3d2f4c55	0.042797405
58	0x3de30e5c	0.11086723
59	0xbd6cecec	-0.057843134
60	0x3de98029	0.11401398
61	0xbd445634	-0.047933772
62	0x3d83eff0	0.06442249
63	0x3d4b4e29	0.049635086
64	0xbd2f8516	-0.04285153
65	0xbcc8a26d	-0.024491513
66	0xbdeb12b3	-0.11478176
67	0xbba7f797	-0.0051259506
68	0xbda1a38c	-0.07892522
69	0xbdcb00d2	-0.09912266
70	0x3dd7c392	0.10535349
71	0xbcae0ac1	-0.021245362
72	0x3da28ac4	0.07936624
73	0xbd945e52	-0.07244553
74	0xbded7a40	-0.11595583
75	0x3d72ab59	0.05924544
76	0xbdfdcc0c	-0.123924345
77	0x3dcdbf97	0.100463085
78	0x3dfb5ea9	0.12273914
79	0xbdd3ab71	-0.10335434
80	0x3d7d523f	0.061846014
81	0xbdd14601	-0.1021843
82	0xbde810f4	-0.113313586
83	0x3dead226	0.11465864
84	0xbdc40a35	-0.09572259
85	0x3ca0f9ce	0.019650366
86	0xbdbe37b9	-0.09287972
87	0x3a740ebc	0.0009310057
88	0x3a06873f	0.00051318476
89	0xbd7241a5	-0.059144635
90	0xbd6c7c51	-0.057735745
91	0x3de7f5b1	0.11326159
92	0xbda49b29	-0.08037407
93	0xbdd990c5	-0.10623316
94	0x3d6e480c	0.058174178
95	0xbd6ae531	-0.05734748
96	0x3d12f368	0.03587666
97	0xbd415b6f	-0.04720634
98	0x3cdd5fc1	0.027023198
99	0x3dfda80f	0.1238557
100	0x3cb6b37c	0.022302382
101	0x3db58dec	0.0886496
102	0xbd676623	-0.05649389
103	0x3dc69109	0.09695632
104	0xbd163c34	-0.036678508
105	0xbcd06672	-0.025439475
106	0xbd4e3829	-0.050346527
107	0x3dd5cbd9	0.104392715
108	0x3d72e220	0.05929768
109	0xbce16eeb	-0.02751871
110	0x3d79fed1	0.061034027
111	0xbdda747a	-0.106667474
112	0xbd31931a	-0.043353178
113	0xbc2195b8	-0.009862356
114	0x3b884fc9	0.0041599018
115	0x3da001c2	0.07812835
116	0x3dfd92ba	0.123815015
117	0x3d877336	0.066137716
118	0x3de4e995	0.11177365
119	0xbded0e47	-0.11574989
120	0x3dfb1a9c	0.12260935
121	0xbde83585	-0.11338333
122	0x3cc5e471	0.02415678
123	0xbd59bc11	-0.05315787
124	0xbda6f51a	-0.08152218
125	0xbd290342	-0.041262873
126	0xbd0bc8e4	-0.03412713
127	0xbcbbef24	-0.02294118
128	0x3c29933e	0.010350047
129	0xbce23a42	-0.02761567
130	0xbd904caa	-0.070458725
131	0xbdc9f09b	-0.09860345
132	0xbd65ad98	-0.056073755
133	0xbdf20acc	-0.118184656
134	0xbcfe3191	-0.031029494
135	0x3d70969d	0.058737386
136	0xbdb49639	-0.08817715
137	0xbd5e36ca	-0.05425147
138	0xbc85b5c2	-0.01632202
139	0xbd7a31f6	-0.061082803
140	0xbd877c33	-0.06615486
141	0xbda1784d	-0.07884274
142	0xbdfc88cc	-0.123307794
143	0x3de809e2	0.1133001
144	0x3db0bccf	0.086297624
145	0xbdf326f0	-0.11872661
146	0x3b86e925	0.0041171485
147	0x3d585f6a	0.05282537
148	0xbdbf5e9c	-0.09344217
149	0x3dd23bac	0.10265288
150	0x3cc119f4	0.023571946
151	0x3d3445bd	0.04401182
152	0xbd4a3fd3	-0.049377274
153	0xbdde9bce	-0.10869561
154	0xbd23876a	-0.039924063
155	0x3b79cbe2	0.0038115908
156	0xbb775798	-0.003774142
157	0xbd9256e2	-0.07145478
158	0xbd7bf028	-0.061508328
159	0x3b165b23	0.0022942505
160	0x3d1fc11d	0.039002527
161	0xbda05e71	-0.07830513
162	0xbd4ff163	-0.050767314
163	0x3dc0fc28	0.09423095
164	0xbd6f6316	-0.058444105
165	0xbcb7fbe9	-0.022458987
166	0xbdb33f24	-0.087522775
167	0x3dfc42e0	0.12317443
168	0xbd13b969	-0.036065493
169	0x3ddedb78	0.10881704
170	0x3d947e92	0.07250704
171	0xbdaa1917	-0.08305567
172	0x3d86ca2c	0.0658153
173	0x3de60753	0.11231866
174	0xbddd1d71	-0.10796631
175	0x3dd4e198	0.10394591
176	0x3d4facd9	0.05070195
177	0x3db75ec6	0.089536235
178	0xbcb458b0	-0.022014946
179	0xbd01f5f0	-0.031728685
180	0x3d8efb14	0.06981483
181	0xbdb295e8	-0.087199986
182	0xbdc43fa6	-0.095824525
183	0x3c20006e	0.009765727
184	0xbd4ff81c	-0.050773725
185	0xbdc1ee51	-0.09469283
186	0x3bf50e2b	0.0074784956
187	0xbd591295	-0.052996237
188	0x3c9aab10	0.018880397
189	0x3c39ebe8	0.011347748
190	0xbcdfb3f3	-0.027307486
191	0x3d8ef18a	0.06979664
192	0x3dc930b1	0.0982374
193	0xbd728ae6	-0.059214495
194	0x3dc75492	0.097329274
195	0xbdcb06e4	-0.09913424
196	0x3d86787b	0.065659486
197	0xbd4673ba	-0.04845021
198	0xba0a5dfc	-0.0005278287
199	0xbd6e0c8c	-0.058117434
200	0xbd408fa1	-0.047011975
201	0xbc040b50	-0.008059338
202	0xbda365dc	-0.079784125
203	0xbdd1219c	-0.102114886
204	0x3d44def5	0.04806419
205	0x3d48e7f3	0.04904933
206	0xbcc5c028	-0.024139479
207	0x3cc49861	0.023998441
208	0xbcc0afc0	-0.023521304
209	0x3dd63f2a	0.10461266
210	0xbc9d5169	-0.019203858
211	0xbde12fb5	-0.109954275
212	0xbd74e6e5	-0.05979051
213	0x3d5d4432	0.054020114
214	0xbd36c400	-0.044620514
215	0x3da12ccb	0.07869872
216	0xbd891674	-0.06693736
217	0x3ddc9dc3	0.10772278
218	0x3af4b2b5	0.0018668982
219	0x3dfd3daa	0.12365277
220	0xbd587ee0	-0.052855372
221	0x3c01646d	0.0078974785
222	0xbd108890	-0.035286486
223	0xbd21d656	-0.039511047
224	0x3d13c480	0.03607607
225	0xbd987106	-0.074434325
226	0xbdf78cd1	-0.120874055
227	0xbccd5cd6	-0.025068682
228	0xbd8daf2c	-0.06918177
229	0xbcb2667e	-0.021777388
230	0x3df4fb44	0.119619876
231	0xbd8dde93	-0.06927218
232	0x3c230616	0.0099501815
233	0x3d584f4d	0.052810002
234	0x3d985980	0.07438946
235	0xbdc71e21	-0.097225435
236	0x3d0dfe1f	0.034666177
237	0xbdc81310	-0.09769261
238	0x3d3e7933	0.046502303
239	0x3c826af1	0.015920134
240	0x3d9628ec	0.07332024
241	0xbdc34cf9	-0.09536166
242	0x3d30b0a0	0.043137193
243	0x3da7df52	0.08196892
244	0xbb0b58f9	-0.0021262749
245	0x3db88cd4	0.09011236
246	0x3dcbcd96	0.09951322
247	0xbd1d34fe	-0.038380615
248	0xbd2fe74d	-0.042945195
249	0x3dbda775	0.092604555
250	0x3cfd2c57	0.030904932
251	0xbd90bcfc	-0.07067296
252	0xbbbd4b2b	-0.005776783
253	0xbb135659	-0.0022481887
254	0x3dec00a3	0.11523559
255	0xbd81cf9b	-0.06338426

bias f4 [10]
0	0xbc8dcc64	-0.017309375
1	0x3d0597f5	0.03261562
2	0x3d75c859	0.06000552
3	0xbdc01abd	-0.093801
4	0x3c967556	0.018366497
5	0x3d9ab22b	0.07553514
6	0xbdbca947	-0.092119746
7	0x3d5e8ede	0.054335468
8	0x3d9a5fc4	0.07537797
9	0x3cdee494	0.027208604
