src/yihao_1.pth (torch, 588600 bytes, 10 tensors)

weight f4 [32, 3, 5, 5]
000000 11 40 a8 bd 82 fc 66 bd cd 98 92 3c 54 c1 05 bd
       -0.08215345 -0.056393154 0.017895127 -0.032655075
000010 9d 55 da bc 00 8b 10 bd b8 72 d3 3c a9 5f db 3d
       -0.026652152 -0.03528881 0.025811538 0.10711605
000020 45 a5 24 bd f9 9f 92 bd be 18 9f 3d ea 5a 09 3d
       -0.040196676 -0.071594186 0.07768391 0.033533968
000030 14 c7 c7 bd 71 08 30 bd a5 a8 de bd 1c 32 1e 3c
       -0.09754768 -0.0429768 -0.1087201 0.009655502
000040 92 50 b6 3d e5 ff 9f bd c3 16 e6 3d 6a b0 03 3c
       0.08902086 -0.0781248 0.1123481 0.008037666
000050 bf 5e b3 3d 83 eb 02 3b 0a 6a 00 bd 14 4e e0 3d
       0.08758306 0.0019976802 -0.031351127 0.10952392
000060 5f 7e 4c 3d 68 80 ca 3d c5 48 34 3d 31 87 e5 bc
       0.049925204 0.09887773 0.04401471 -0.028018566
000070 9f fb 67 3d 11 d3 5e bd 64 4b 6b 3d c2 b4 c7 3d
       0.05663645 -0.054400507 0.057444945 0.09751274
000080 6a 92 41 3d 4a ad 97 3d d5 5f c4 bc 7b 37 ba 3d
       0.047258772 0.07406099 -0.023971478 0.09092613
000090 4c 0e 7d 3b 12 8d c8 3d 7a 8b 9c 3c 61 be c6 3d
       0.0038613258 0.09792532 0.019109476 0.09704281
0000a0 2c 95 d3 bd c2 d6 21 3b 92 1a d8 3d d5 e3 d8 3d
       -0.10331187 0.0024694656 0.10551943 0.105903305
0000b0 aa d8 a9 3d 20 5e 56 3d 72 eb e7 bc 73 9e 49 3c
       0.082932785 0.05233586 -0.028310511 0.012305844
0000c0 a7 55 3c 3d 98 ea fe bc 18 99 1c 3c ef 27 d2 3d
       0.045980122 -0.031117722 0.009557985 0.10261523
0000d0 b0 d3 85 bd 4a 9a 4b 3d 2b 4f 95 bd 7e 7f c4 3d
       -0.06534517 0.04970769 -0.07290491 0.0959463
0000e0 b8 3e f7 bb 20 01 86 3d a7 64 ce 3d b8 0e 69 3d
       -0.0075453185 0.06543183 0.10077792 0.056898803
0000f0 d1 71 c6 bd 5c e1 7c 3d 0a 2b 2b bd c6 52 a2 3b
       -0.096896775 0.061738357 -0.041789092 0.004953715
000100 b4 8a 94 bc b8 3f c2 3d 81 d3 05 3d cf e7 c4 bc
       -0.018132545 0.0948481 0.03267241 -0.024036316
000110 db f1 df bd 10 74 a4 bd a6 ac d1 3d 2e d2 48 bb
       -0.10934802 -0.0802995 0.10238008 -0.0030642855
000120 f0 d3 4c bd 07 be cb bb 85 2c a0 3d 72 4c 72 bd
       -0.050006807 -0.0062177214 0.078209914 -0.059154935
000130 fc 00 34 3d fe fe b7 3d 2d 00 d4 3c e0 8f dd bd
       0.04394625 0.08984183 0.02587899 -0.108184576
000140 28 da a2 bd 6b 82 05 bd 67 41 95 bd ff 72 7f bd
       -0.07951766 -0.03259508 -0.07287865 -0.06236553
000150 ac 31 2d bd fd 85 b4 3d c3 8d 9e 3d 4f 36 5f bd
       -0.0422837 0.08814619 0.07741883 -0.054495152
000160 02 dd 98 bd 0e 39 cc 3d 96 a8 cb bc 5f 3b df 3d
       -0.07464029 0.0997182 -0.024860661 0.10899996
000170 dc 15 93 bc 41 2d 26 bd 5b c7 db bd da 05 d8 3d
       -0.01795476 -0.0405705 -0.107313834 0.10547991
000180 3d 04 86 3c 3b d2 a3 bd 0c fb 82 3d e1 54 c4 bd
       0.016359443 -0.07999083 0.0639554 -0.09586502
000190 32 79 c2 bd 30 d7 89 3d bc 24 22 3c fb f2 eb bd
       -0.094957724 0.06730497 0.0098964535 -0.11520954
0001a0 5f ad f7 bc 63 52 58 bd 18 0f ab bb 9a 5a 09 3d
       -0.030234037 -0.052812945 -0.005220305 0.03353367
0001b0 e0 f9 93 bb 4a 70 ba bd 2e 35 0d bc e4 63 c8 3d
       -0.0045158714 -0.09103449 -0.008618636 0.097846776
0001c0 5f da 93 3d 84 e7 9a bd 6f ee 31 bc 7f da e0 3d
       0.07219385 -0.07563689 -0.01086007 0.10979175
0001d0 70 10 52 bd 63 b3 2c bd 19 9d 92 bc 37 6f 78 bc
       -0.051285207 -0.042163264 -0.017897176 -0.015163234
0001e0 94 15 98 bc bd e5 3d bd aa be f7 bc a8 ec 75 3b
       -0.018564977 -0.046361674 -0.030242283 0.0037525091
0001f0 2e b0 05 bd 98 5a 32 3c ab b1 3f 3d 91 7a 41 bd
       -0.03263872 0.010885857 0.046800297 -0.04723603
000200 e2 a8 2b 3d 27 9e 79 3d b9 9c 4b bd 21 25 cc bd
       0.041909106 0.06094184 -0.04971001 -0.09968019
000210 5d 03 3d bd 7f cb 28 3d 64 6c c3 bd 93 76 1a bd
       -0.046145786 0.041209694 -0.09542158 -0.037710737
000220 3a 51 d2 bd ee bf 1f bd 85 5c a3 bd 78 70 e9 3a
       -0.10269399 -0.039001398 -0.07976631 0.0017810008
000230 a0 e4 b2 bb ba ef b5 bd 5d d7 c7 bd ee 57 e3 3d
       -0.005459383 -0.08883615 -0.09757874 0.11100756
000240 e4 70 27 bd 48 99 3c bd 34 a4 95 bb e2 92 37 bd
       -0.040879145 -0.046044618 -0.0045666937 -0.044817813
000250 86 9c c0 bc 06 8a 22 ba 19 37 e0 bc d8 cf a2 3d
       -0.023512136 -0.00062003767 -0.027370023 0.07949799
000260 2d f3 0d ba 38 07 9f 3d b2 20 a5 bd d8 14 b8 3d
       -0.0005414959 0.07765049 -0.08062877 0.08988351
000270 15 78 bc bb 76 84 76 bd 65 68 e2 bd 01 ff 41 bd
       -0.0057516196 -0.06018492 -0.11055068 -0.04736233
000280 e8 01 76 bd 8f cb bb 3c e8 2a ca bc b6 0e ea 3c
       -0.06006041 0.022924213 -0.024678662 0.028571468
000290 a6 bd 7f bc ee 21 bb bd bd ab de bd 81 c6 ea bd
       -0.015609181 -0.09137331 -0.108726 -0.11463643
0002a0 13 b4 16 3d 8f 77 10 bd 0a 6c 7e bd 81 f0 a4 3d
       0.036792826 -0.03527027 -0.062114753 0.08053685
0002b0 7d 1b 8c bd a5 ae d9 3d c5 88 e2 bd 5f 58 64 bc
       -0.068411805 0.10629014 -0.11061243 -0.013937085
0002c0 72 c6 8a 3c b0 58 64 3d 4c db 3b bd 8d 5c 74 bd
       0.01694033 0.05574864 -0.045863435 -0.059658576
0002d0 ba 2c 9b 3d 1d c8 cb 3c d6 8d a5 bb ee e1 4a bd
       0.0757689 0.024875695 -0.0050523086 -0.04953187
0002e0 44 bb ae 3c 91 dd b9 bd de e5 bc 3d b1 90 33 bb
       0.02132953 -0.090754636 0.09223531 -0.0027399475
0002f0 28 42 c6 bd f1 96 82 3d 66 a0 8c 3d 0f e8 60 3d
       -0.09680587 0.06376446 0.06866531 0.05490881
000300 d7 37 77 bd 18 d2 3d bd be aa e4 bd 44 2a dc bd
       -0.060355987 -0.04634294 -0.11165379 -0.10750249
000310 61 c2 93 3d bf c6 f0 bc f4 7a ec bd c1 bd 62 3d
       0.07214809 -0.029391645 -0.11546889 0.055356745
000320 fd 8e 55 3c d9 84 36 3c f8 57 73 3d 56 8c 0e 3d
       0.013034579 0.011140072 0.059410065 0.034801804
000330 28 e2 a3 3d d6 88 48 3d b9 f2 62 3d 3e 62 48 bd
       0.0800212 0.048958622 0.05540726 -0.048921816
000340 24 42 82 3d 99 f4 7a bc 98 34 e6 bd 90 ed d9 3d
       0.063602716 -0.015317106 -0.112405 0.106410146
000350 8d b6 23 bd bb 58 2c bd f5 eb c9 bd d3 63 18 3c
       -0.039969016 -0.042076807 -0.09859458 0.009301144
000360 a8 1d 68 bc 27 c9 bb bc cc 51 a4 bd e7 15 c6 3d
       -0.014167227 -0.022923065 -0.08023414 0.09672146
000370 d2 c5 93 bd ba fe 98 3d a9 8d 75 bd d9 20 cc 3d
       -0.072154656 0.0747046 -0.05994955 0.09967203
000380 d8 2f 1b 3c f8 bf 39 3d 6d df 59 3d 87 22 51 bd
       0.009471856 0.04534909 0.05319159 -0.05105832
000390 15 ef 76 3d 18 fe c5 3d 4b 5a cc 3d fb 25 0a bd
       0.0602866 0.09667605 0.099781595 -0.033727627
0003a0 1b a7 a5 3c 6b 7a c2 3d 68 2c 95 3d 8e a1 52 bd
       0.020221284 0.094960056 0.072838604 -0.0514236
0003b0 d4 07 ae bb 83 69 9a bd 91 9b e3 bc e6 23 48 3d
       -0.005310992 -0.07539656 -0.02778414 0.04886236
0003c0 97 1f 83 bd 02 cb 87 bd 3b 85 f1 bc d4 44 e9 bd
       -0.0640251 -0.066305175 -0.029482475 -0.11390081
0003d0 bd 66 ad 3d 67 17 29 3d 7a 16 26 bd 4f 74 e9 bd
       0.084668614 0.041282084 -0.04054878 -0.11399137
0003e0 68 ba 28 3b d0 cc 3b 3d 62 e8 7e bd a5 0f 80 bb
       0.0025745872 0.04584962 -0.062233336 -0.003908115
0003f0 6b f9 da 3d 05 05 95 3d 34 be e1 3c 69 d7 45 3b
       0.10692104 0.07276348 0.027556516 0.003018821

bias f4 [32]
000000 ea 92 d4 bd 59 67 2b bd df ba d8 3c b5 28 cb bd
       -0.10379584 -0.041846607 0.026456295 -0.099198736
000010 5c 27 86 3d 27 2f af bd d0 c6 1d 3d fe 40 a8 3c
       0.06550476 -0.085539155 0.03851968 0.020538803
000020 18 e3 ef 3c 43 ae 92 bd 03 51 5b bd 7e 1b bc bd
       0.029283091 -0.07162144 -0.053544056 -0.09184931
000030 33 74 0b bd aa 8d 73 3c af 29 86 3d b4 cf 48 3d
       -0.034046363 0.014865318 0.06550919 0.049026206
000040 07 f7 e6 bd e6 51 b8 bd d9 84 ad 3d 7b 4b 45 3d
       -0.112775855 -0.08999996 0.08472604 0.048167687
000050 20 ba 38 3d 90 5a ba bc 41 2f 23 3d 14 9e d4 bd
       0.045099378 -0.022748262 0.039839987 -0.103817135
000060 20 06 ab 3d 77 38 9d bc 3f 4a 9d 3d 2a 3f 25 bd
       0.083507776 -0.019191964 0.07680177 -0.04034344
000070 4f 2b dc 3d 46 f6 be bd e5 c7 c5 3d 4a 60 d7 bd
       0.10750448 -0.09324317 0.096572675 -0.105164126

weight f4 [32, 32, 5, 5]
000000 45 a3 8f 3b 74 f6 27 3c 7e 53 33 bc c3 ba eb 3c
       0.004383477 0.01025163 -0.010945199 0.028775578
000010 eb 6e b8 bb b4 b1 25 3c 10 d9 2b 3c e1 86 f2 bc
       -0.005628457 0.0101131685 0.010488763 -0.02960533
000020 2c 0e 31 bc 75 8b f2 3c 7a df 04 bc f9 c5 89 3c
       -0.0108066015 0.029607514 -0.008109922 0.016818034
000030 2f 63 f2 3c 08 f0 7d 3c ef 8a 8a 3c 63 30 b4 bc
       0.02958831 0.015499122 0.016911952 -0.021995729
000040 76 d1 32 bc 8e 48 e0 bc d0 1b b0 3c e8 58 0d bd
       -0.010914197 -0.027378347 0.021497637 -0.034508616
000050 60 09 8d bb cd 1d c7 bb 05 32 10 3d 94 3d c5 3c
       -0.004304096 -0.0060765506 0.035203952 0.024077214
000060 6b b5 d1 3b e9 90 7a 3c 8f e5 95 3c 42 98 8e 3c
       0.0063998005 0.015293338 0.018297939 0.017406587
000070 24 24 9b bb 12 e8 58 bb 2e 7d d2 bc 7e de 46 3c
       -0.004734533 -0.003309731 -0.025694456 0.012138007
000080 9c 0d 05 bd e3 01 97 bc 1a fd fe 3c 5d 12 c6 3b
       -0.032483682 -0.018433517 0.031126548 0.0060446695
000090 f2 55 96 bb 26 65 b7 3c de bf bd bb a6 53 9b bc
       -0.004587882 0.022387099 -0.0057906946 -0.018960785
0000a0 48 32 ab 3c 1e f2 ca b8 09 f5 3c bb 3c 2a 1e 3b
       0.020898 -9.6772084e-05 -0.0028832576 0.002413406
0000b0 47 60 89 3c 81 01 05 bd a2 6b 6e bb a2 b2 5d bc
       0.016769541 -0.032472137 -0.0036380072 -0.013531359
0000c0 22 40 f4 3c 62 d2 bc bc 7c c8 e6 3c db b9 29 bc
       0.029815737 -0.023049537 0.02817177 -0.010359253
0000d0 54 f7 93 3c 26 14 b2 3b a8 1d 95 3b a6 ea 9a 3c
       0.018062271 0.005434531 0.0045506544 0.018910717
0000e0 32 9c 67 3c d8 8c b2 bc b6 0b fb 3c bc bc f9 3c
       0.014136361 -0.021795675 0.030645233 0.030485503
0000f0 47 80 e2 bb d5 00 9a 3c 8d 98 cb bc 00 ff cc 3a
       -0.0069122645 0.018799225 -0.024853015 0.0015639961
000100 af 75 55 3a 62 a1 04 bb 86 94 d0 bb e0 43 fa 3c
       0.00081428414 -0.0020237793 -0.0063653616 0.030549943
000110 ae b8 de 3b 9c 28 bd bc fe 67 b3 3c 50 ac b8 3b
       0.006796918 -0.023090653 0.021900173 0.0056357756
000120 0a d7 3f 3c 82 38 f7 bc 24 3c 4a 3c a8 02 e5 bc
       0.011708984 -0.030178312 0.01234344 -0.027955368
000130 1e f2 ae bc 99 55 05 bd eb 37 de bc 33 f7 bb bc
       -0.021355685 -0.032552335 -0.027126273 -0.022945022
000140 ff 04 e3 b9 89 f6 64 bc 39 07 53 3c 44 54 a4 3b
       -0.00043300536 -0.013974794 0.01288014 0.005014928
000150 37 88 01 3d cb 9c 02 bc ce a6 eb 3a 53 eb ae bc
       0.031624045 -0.007971953 0.0017978789 -0.021352446
000160 fd 35 dd 3b e3 b5 a4 b9 2f 32 ee bc 0b 64 94 bc
       0.0067508207 -0.00031416034 -0.029076664 -0.01811411
000170 68 20 50 3c 1d e6 b9 bc 92 93 16 3c c3 16 6c bb
       0.012703039 -0.022692734 0.009190457 -0.003602431
000180 e4 8d a1 3c ae 23 ad 3c 62 a9 e2 bc 53 0a 4f bc
       0.019720979 0.021135177 -0.027668659 -0.012636739
000190 ac d9 0b 3d 2b 69 18 bc be c8 cd 3c 12 53 b6 3c
       0.034143135 -0.009302418 0.025120135 0.022256408
0001a0 99 9c 16 bc 1c c8 2b 3c 42 81 09 3d 3d 61 c3 bc
       -0.009192609 0.0104847215 0.033570535 -0.023850078
0001b0 1e 1b 67 bb cb 96 73 bc f1 72 e5 bc 3a f8 ce 3c
       -0.0035263966 -0.014867495 -0.02800891 0.025264848
0001c0 fe 6d 20 3b 0a e7 03 bc 7d 72 e2 3c 37 17 dc bb
       0.0024479623 -0.0080506895 0.027642483 -0.0067166346
0001d0 0b f5 12 3c 1b 64 80 3c 03 91 ea ba 1a 22 fb 3b
       0.008969556 0.015672734 -0.0017896 0.0076639773
0001e0 fb 76 f3 3b 9e 75 0d 3d 95 aa 90 bc da ba 56 3c
       0.007429955 0.034535997 -0.017659465 0.013106072
0001f0 7e 49 e8 bb d5 9e 63 bc 6a 7f f2 bc 69 a1 ff 3a
       -0.007088839 -0.013892849 -0.029601771 0.001950306
000200 47 92 3d bc 05 2b 68 3c f0 08 e5 3c 6a 14 a3 3c
       -0.01157052 0.014170413 0.027958363 0.019907195
000210 7e d3 d6 bc fd 94 00 3c cf bf 20 bc 1e 51 ff 3c
       -0.026223894 0.007848022 -0.009811356 0.03116661
000220 e3 20 03 3c ab ca 82 3c 2d 00 6a bc 4d a4 c2 3c
       0.008003446 0.01596578 -0.0142822685 0.023759985
000230 dc 38 ac bc ed e5 7b 3c 65 5b 42 3c 88 c1 d3 3c
       -0.021023206 0.015374643 0.0118626105 0.025849119
000240 a8 3f 68 3c 97 64 f9 3b 15 dc 00 bd 5f cd 6a 3c
       0.014175333 0.007610868 -0.031459887 0.014331191
000250 70 af ea 3c f4 e1 6a bc a9 cc 96 3c 93 16 de 3c
       0.028648108 -0.014336098 0.018408136 0.027110374
000260 a9 4e d2 bc ba b9 67 bc 3f dd 8e bc ed 15 08 3d
       -0.025672274 -0.014143402 -0.017439483 0.033224035
000270 38 4f ce bc 34 e0 4e 3c a6 75 2b bc 19 66 f8 3b
       -0.025184259 0.012626696 -0.010465061 0.0075805304
000280 e1 c5 75 3a 21 c2 9f 3b 75 ff bb 3a c4 db df 3c
       0.00093754946 0.004875437 0.00143431 0.027326472
000290 dc 19 ee 39 4b cd 01 bd 90 7e 86 bc ad bb 23 3c
       0.00045414164 -0.031689923 -0.016417772 0.009993476
0002a0 51 4d c7 bc f7 b1 e1 3c 0a aa ee bc d8 43 6f 3c
       -0.02432886 0.02755068 -0.029133815 0.014603578
0002b0 cb 8f bd bc 33 46 f4 3c 8d d1 96 bc f3 e9 ae 3c
       -0.023139855 0.02981863 -0.018410468 0.02135179
0002c0 4e 56 af bc a6 f5 6a 3c a1 24 7c bc 81 2b 60 3b
       -0.021403458 0.014340794 -0.015389592 0.0034205618
0002d0 3f 49 87 bc 0c 9f 07 bd 83 b6 e2 3b 87 83 fd 3b
       -0.016514419 -0.033110663 0.0069187297 0.0077366265
0002e0 53 6c cf 3a 40 ba 02 3d 26 ad 8d 3c d3 55 4f 3c
       0.001582513 0.031915903 0.017294478 0.012654739
0002f0 ce 54 dc 3c ab b3 47 3c d1 d2 43 3c c4 2f f4 3c
       0.026895907 0.012188832 0.011952118 0.029807933
000300 8f 8a 5d 3c 19 8b db 3c 7a 7b c8 3c 3a a0 9a 3c
       0.0135218045 0.026799725 0.02447294 0.01887523
000310 06 7a 9e 3c 88 ac 0f bd b3 d0 08 3d bf 28 08 bd
       0.019345295 -0.035076648 0.033402156 -0.033241984
000320 7f ae ab bc f4 55 b6 3b 7a d8 d4 bc 46 f3 06 3d
       -0.02095723 0.0055644456 -0.02598213 0.032946847
000330 2e 1a c3 bc 6b f8 e3 3c b5 2f 72 3b 5d ce 79 bb
       -0.023816194 0.027828416 0.0036954705 -0.0038117387
000340 18 95 58 bc b1 a2 b9 bc 59 4e fe bc db 15 0d bd
       -0.0132191405 -0.022660585 -0.031043218 -0.03444467
000350 7c 9d c3 bb 91 01 4d 3b c5 fa 0f 3d cc 21 ec bc
       -0.0059697013 0.0031281451 0.03515126 -0.02882471
000360 aa 62 fa bc 45 5c d7 bb 2f 38 37 bc 57 1d b5 bc
       -0.030564625 -0.0065722787 -0.011182829 -0.022108717
000370 17 17 c1 3b 27 b3 0b 3d 5d af b1 3c 54 d2 9e bc
       0.005892645 0.0341064 0.021690065 -0.019387402
000380 ef b4 f6 3c 84 83 11 bd ea 5b 12 3c 17 ae 6b 3c
       0.030115573 -0.035525814 0.008933047 0.014384768
000390 91 bf 04 bc 03 f1 02 3d 03 0d fd 3c 86 8b 08 bb
       -0.008102314 0.031968128 0.030889994 -0.0020835116
0003a0 0f c6 ea 3c ff 3c 6a bc 5a a4 29 3c cc 21 d6 bc
       0.028658895 -0.014296769 0.010354126 -0.026139162
0003b0 d2 3a 05 bd 9f 7a 3f b8 55 e2 bb bb 7f 13 6b bc
       -0.0325268 -4.565215e-05 -0.005733768 -0.01434791
0003c0 f5 da 31 bc 65 ea 8e 3a 4a af e2 3c 04 27 95 3c
       -0.010855426 0.0010903595 0.027671475 0.01820708
0003d0 11 9b 94 3b 39 90 7e bb a9 1f 0e bd 54 3a bb 3b
       0.004535087 -0.0038843288 -0.034698162 0.0057137404
0003e0 0f 44 6d 3c 66 28 b1 ba 79 51 c5 3c 93 c7 38 3a
       0.014481558 -0.0013516068 0.0240867 0.0007048782
0003f0 ac 47 2c 3c ae c3 11 3c f2 24 33 bc 0c 5e c8 bc
       0.010515135 0.008896751 -0.010934101 -0.024458908

bias f4 [32]
000000 62 ac 75 3c 48 ab 3a 3c 65 02 0f 3d 98 ff 3d 3c
       0.014994713 0.011393376 0.034914393 0.011596583
000010 a5 61 85 bc 21 11 24 bc 3e 5c f7 3c 6b 5f db 3c
       -0.016281912 -0.0100138495 0.030195352 0.026778897
000020 f1 7f 78 3c fc 52 61 3c 2d 38 5d bc 2e a0 ed 3c
       0.015167222 0.013752695 -0.013502163 0.029007044
000030 17 09 d7 3b 5d d1 57 3c 7a 3a a9 3b 6b 42 2e 3c
       0.006562363 0.013172475 0.0051644417 0.010635952
000040 a5 30 f7 3b d3 49 cd 3c f7 7e 06 3d 66 f7 0f bd
       0.0075436407 0.025059616 0.032835927 -0.035148047
000050 05 f5 c5 bc 9d 24 4c 3c 5e ce 04 3d dd 51 64 39
       -0.024164686 0.012459901 0.03242337 0.00021774271
000060 a8 0f 4c bc 74 94 19 bb ee 07 83 bc a2 52 3a 3a
       -0.012454905 -0.0023434432 -0.015994992 0.000710765
000070 b0 d1 f7 bc 46 f0 f2 bb 5f b3 ed 3c 3c 7d 0c 3d
       -0.030251354 -0.0074138967 0.029016195 0.03429912

weight f4 [64, 32, 5, 5]
000000 1c b2 f5 3a 93 86 d2 bc 83 b1 bd 3a 9b 04 25 3c
       0.0018745097 -0.025698936 0.0014472458 0.010071899
000010 3e 0d 4d 3b 0b 9b e1 3c 8f e5 9e 3c e4 35 98 3c
       0.003128841 0.02753975 0.019396571 0.018580385
000020 57 c0 b6 bc 12 f3 d0 3c d5 15 10 bd 81 35 11 bc
       -0.022308512 0.02550653 -0.03517707 -0.008862854
000030 7f 25 e6 3c 11 a5 6a 3c 4b 41 2f 3c b6 10 9a 3c
       0.028094051 0.014321581 0.010696719 0.018806797
000040 86 37 c0 bc 72 d7 e5 3c 9c 5a 98 bc 29 80 32 bc
       -0.023463976 0.028056834 -0.018597893 -0.010894814
000050 28 7d bd bc 70 de c6 3c 1f 99 0d bd 85 1d 05 bd
       -0.023130968 0.024275988 -0.034569856 -0.032498855
000060 4d c2 d5 bc e6 0c 84 3c b6 f5 c4 3c 2f dd b2 bc
       -0.026093626 0.016119432 0.024042945 -0.021833984
000070 52 d7 3a 3c fb bb eb 3c 51 e4 23 3c e5 09 0d bc
       0.011403875 0.02877616 0.010003165 -0.008608316
000080 a9 b7 28 bc 3a 97 03 bd 7c 8b 9c bc 37 0d b1 3b
       -0.010297694 -0.032126643 -0.01910948 0.0054031867
000090 73 dd 09 bd 52 4e 6b bc 32 c3 76 bc de 33 d7 bc
       -0.033658456 -0.014361935 -0.015061187 -0.02626985
0000a0 12 bd e8 3c 6f ae f1 b9 bc 59 0d 3d f3 44 d1 3c
       0.028410468 -0.00046097065 0.034509405 0.025545573
0000b0 86 47 81 3c 46 f3 03 3d e1 1f e0 3c c2 a4 e9 bc
       0.015781175 0.032214426 0.027358951 -0.028520945
0000c0 c7 26 ef ba 73 3e 93 bc b8 f2 21 3c 6f 15 ba b9
       -0.001824581 -0.017974114 0.009884529 -0.00035492654
0000d0 b9 96 0f 3d 6e 99 80 bb 5b ef 67 bc 9e 6b b0 3c
       0.03505585 -0.0039245402 -0.014156188 0.02153569
0000e0 60 96 b9 3b 49 d3 83 3b 8a 25 cf bb 51 b8 f6 3c
       0.005663678 0.00402299 -0.0063216137 0.030117186
0000f0 25 e5 02 bc c0 be cc bc 60 7e 4d 3c 5a 5e 61 bb
       -0.007989203 -0.0249933 0.012542337 -0.0034388513
000100 71 3b 8e bb 57 6e 07 bd db 82 f2 3c 55 bd d6 3c
       -0.004340582 -0.033064213 0.029603412 0.026213327
000110 d8 66 83 bc 9e 33 7a 3c ca c0 92 3c db 9d 0d bd
       -0.01604025 0.015271096 0.017914195 -0.03457437
000120 a9 e8 a7 3c f8 3c 6f 3c 1c 30 b2 3c 65 77 fb 3c
       0.020496683 0.014601938 0.021751456 0.03069658
000130 30 bb df bb 44 23 f5 ba e6 b5 78 3c ba c9 0d bc
       -0.0068277344 -0.0018702527 0.015180087 -0.008654052
000140 c6 7d 08 3c 7e 5f c4 bb 7f d2 af bc 43 3f f8 bb
       0.008330768 -0.005992829 -0.021462677 -0.0075759008
000150 06 05 bb 3c 98 ac 4f bc 0e a0 07 bd e4 0f 3d bc
       0.022829544 -0.012675427 -0.033111624 -0.011539433
000160 40 28 12 ba ce bf bd 3c 2a ba 49 3b 9f 3b dd 3c
       -0.0005575456 0.023162749 0.0030781128 0.027005969
000170 6c 04 a8 3a fc 76 05 bd 3d f2 90 3c 7a a5 84 bc
       0.0012818701 -0.032584175 0.017693633 -0.016192187
000180 8d 50 01 3c 70 2c 2e bc 65 37 b4 bc 21 23 e4 3b
       0.00789274 -0.010630712 -0.02199907 0.0069621955
000190 8c 6d 35 bb f9 1e b5 39 89 1c c0 bc a3 81 2a bc
       -0.0027683703 0.00034546087 -0.023451107 -0.010406884
0001a0 32 3f a1 bb b8 98 06 bd 4e e8 75 bb 80 e6 00 bd
       -0.0049208635 -0.032860488 -0.0037522498 -0.031469822
0001b0 87 ce f2 ba 9f 6b 0a bd 93 50 a5 bb e6 ee 0a 3c
       -0.0018524685 -0.03379404 -0.0050450056 0.008479809
0001c0 55 1f 04 bc c5 35 3d bc 76 56 03 bd fa 7e 6d 3c
       -0.008064111 -0.011548464 -0.032064877 0.014495606
0001d0 f4 88 d1 3c 52 bc 6a bc 13 d7 98 bc 69 a2 6d 3c
       0.025578 -0.014327126 -0.018657243 0.014504054
0001e0 50 72 0e bd 9f 34 f6 bc 8a 84 4f 3c 6e b0 9c bc
       -0.034776986 -0.030054389 0.012665877 -0.019127097
0001f0 c0 59 c0 3c 3a 9c 7c 3c 31 f9 a1 bb 06 8f c7 3c
       0.023480296 0.015418107 -0.004943036 0.024360191
000200 7c 8f 11 3b bf b3 9e 3c f6 1f 04 bd bd 71 ac bc
       0.0022210767 0.019372819 -0.032257043 -0.021050328
000210 9f 08 e3 3c e3 1c c3 bc 16 ea 40 bc 2c 46 c1 3c
       0.027714072 -0.023817485 -0.01177456 0.02359303
000220 78 89 66 bc 1e 4c 08 bb 2b 99 f9 bc 35 e8 cd bc
       -0.014070861 -0.0020797323 -0.030468544 -0.025135139
000230 4f 69 fc bc 1f 59 c3 bb 1f f8 fd 3c a2 3c 04 3d
       -0.030811934 -0.005961552 0.031002102 0.032284386
000240 91 28 b7 bc a9 26 67 ba db 00 3f bc 1d 9d 10 bc
       -0.02235821 -0.00088177115 -0.011657919 -0.008826521
000250 e5 57 e0 bc 8f 9d 7d 3c 5a ba 8f bc 5b bc 8b bc
       -0.027385661 0.015479459 -0.017544914 -0.017057588
000260 32 b5 79 bc a3 93 b2 bc da ed ba 3c 81 38 0b bd
       -0.015240954 -0.021798914 0.022818495 -0.033989433
000270 ee 71 b6 3c 00 2e 62 3b 04 25 08 3d 24 64 b5 bb
       0.022271123 0.0034512281 0.033238426 -0.0055356193
000280 6d 05 89 3b 67 12 d5 3b cc c7 63 3c e8 25 7d 3c
       0.004181555 0.006502438 0.013902616 0.015450932
000290 c3 17 32 bb 53 05 69 bb 68 17 87 3c fc 2f 12 ba
       -0.0027174808 -0.0035556152 0.016490653 -0.0005576608
0002a0 77 31 27 bc a1 12 a4 3c 88 ab ae bb 08 7b e9 3c
       -0.010204664 0.020028414 -0.0053305067 0.028501049
0002b0 c6 0d 05 3d 17 2b 93 ba 56 b1 c0 3b dd 89 be bb
       0.03248384 -0.0011228052 0.005880515 -0.0058147744
0002c0 ce 69 8c 3b 6d 4d dc 3c 6f fd c8 bb a4 e9 0e bd
       0.004285074 0.026892388 -0.0061337273 -0.034890786
0002d0 15 df 92 3b 8a be 62 3c bf 26 56 bb 3b 7f 34 bc
       0.00448216 0.013839373 -0.0032676903 -0.011016662
0002e0 c0 ac aa 3c a5 85 ad bc 65 06 40 bc d4 9b 24 3b
       0.020834327 -0.02118189 -0.011720275 0.0025117295
0002f0 e9 52 b8 3c 9d 06 13 bd 54 b0 9e 3c 26 fe ab bb
       0.022500472 -0.03589498 0.01937119 -0.0052488027
000300 21 75 d9 bc 05 7a bf 3c d1 1b a6 3c 2f 44 0a bd
       -0.02654511 0.023373613 0.020276936 -0.03375643
000310 75 2e 3b bc c5 77 e6 bc 5d 7d bc bc ab ae ee bc
       -0.01142465 -0.028133282 -0.023008997 -0.029136023
000320 82 86 00 3d bc 7f 68 bc 4e 13 03 3c af 6b b1 3c
       0.031378277 -0.0141906105 0.008000208 0.021657793
000330 a4 1d 03 3d 75 64 08 bd 81 35 f7 3c f2 61 ae 3b
       0.03201069 -0.03329893 0.03017688 0.0053217346
000340 b9 b2 7c 3b d6 4a 70 3c 9e d8 a5 bc 1d 5c f5 3c
       0.0038558675 0.01466628 -0.020244893 0.02995115
000350 69 5f db bc fd 6d 0c 3d 7a 41 9b 3c 0f 50 07 bd
       -0.026778894 0.03428458 0.01895212 -0.033035334
000360 d9 a4 d4 3b 8a 94 d3 3c 49 b9 f9 3b c1 76 22 3c
       0.006489378 0.025827665 0.0076209647 0.009916008
000370 46 0c 01 bd 7c 45 f9 bc 38 ba 07 3d b1 2a 4d 3c
       -0.031505845 -0.03042864 0.033136576 0.012522385
000380 13 69 3f 3c ec 8a 5e 3c d5 24 9a 3b 7f 46 bf bb
       0.0116827665 0.013582926 0.0047040978 -0.005837261
000390 aa 57 44 3c 91 46 1d 3c 79 d5 cb 3c e2 c1 1b bb
       0.011983791 0.009599344 0.024882065 -0.0023766686
0003a0 80 d2 92 bc 67 72 a7 3c d8 3f f9 bc 91 4e 25 3c
       -0.01792264 0.020440293 -0.03042595 0.0100895325
0003b0 46 05 df bb 05 eb 98 bc 70 9c b9 bb 8d 0e d5 bc
       -0.0068060486 -0.018666754 -0.0056644008 -0.026007915
0003c0 46 b9 c9 3b 56 84 4d 3c d6 59 ac 3c b2 e4 05 3d
       0.0061561195 0.012543758 0.02103893 0.032688804
0003d0 0e 53 c5 3b 08 50 da bc 64 1c b5 b9 48 2a 40 3b
       0.006021864 -0.02664949 -0.00034544163 0.0029322077
0003e0 33 c7 ec bc f9 0b de bc 65 78 6e bc 62 e4 a1 3c
       -0.02890358 -0.027105318 -0.0145550715 0.019762222
0003f0 d8 a5 f1 3c 59 d9 5d ba f7 09 30 bc 46 62 c6 3a
       0.029498026 -0.0008462868 -0.010744563 0.0015135489

bias f4 [64]
000000 df 9a 57 3c 84 67 75 3b 01 61 e7 3c f4 a2 c6 bc
       0.013159483 0.0037445733 0.028244497 -0.024247624
000010 2d 8c 35 3b 57 7c 07 3d bf 3e fe bc ff e4 87 bc
       0.002770196 0.033077564 -0.031035779 -0.016588686
000020 a1 94 d5 bc 51 dc 06 bd 3e 13 96 bc 98 68 09 3d
       -0.026071848 -0.032924954 -0.018319722 0.033547014
000030 1e 8f 87 bc ae 60 0a 3d f6 cf 85 3c 4d 5d a0 3b
       -0.016547736 0.033783607 0.016334515 0.004893935
000040 c1 7c 1e bc 1f 55 f4 3c 06 85 fa 3b 27 21 02 bd
       -0.009673298 0.029825745 0.007645252 -0.031769898
000050 85 cf 54 3b 62 58 20 ba b7 03 19 bc 9f 57 9f bc
       0.0032472324 -0.00061166857 -0.009339265 -0.01945096
000060 d0 82 37 bc d7 03 80 bc 66 83 16 3d 83 b0 0d bd
       -0.011200622 -0.015626831 0.036746405 -0.034592163
000070 3f 14 0e bd 13 db 92 bb a0 27 da bb 9f bb 9b bb
       -0.034687277 -0.004481682 -0.0066575557 -0.004752591
000080 70 1d 52 bb 43 7b f6 3c 11 a4 02 3d 41 07 99 bc
       -0.0032061003 0.030088073 0.031894747 -0.018680217
000090 e8 5b 04 3c c3 29 0a bb 49 2f 2e 3c 26 c0 0a 3d
       0.008078553 -0.002108202 0.010631391 0.033874653
0000a0 88 ae 88 3c 8a 96 e2 3c 8a 77 25 3c 3b 10 bd bc
       0.016684785 0.027659673 0.010099301 -0.023079028
0000b0 28 a4 ac 3c 74 39 0c 3d da 6d 3a 3b 4a 81 f8 bb
       0.02107437 0.03423448 0.0028446824 -0.007583772
0000c0 00 71 e4 3c 80 f0 16 ba a1 e5 11 bd d2 68 17 3b
       0.027885914 -0.0005757883 -0.03561938 0.002310325
0000d0 c1 03 eb bc 31 cd 15 3c a9 0e c2 3c 34 8f cc 3c
       -0.028688313 0.00914316 0.023688631 0.024970628
0000e0 c4 e2 c6 bc 9b 79 19 bc 87 14 51 bc 28 40 10 bd
       -0.024278052 -0.009367372 -0.012761242 -0.035217434
0000f0 b3 3c f1 bc e7 24 00 3d cc 69 ad bc 96 6a e9 3c
       -0.029447889 0.031285193 -0.021168612 0.028493207

weight f4 [64, 1024]
000000 fa 2d 75 3b 69 be d1 bb a4 cd 16 bc 11 d3 9f 3c
       0.0037411437 -0.0064008725 -0.009204302 0.019509824
000010 c5 52 90 bc b0 53 b2 bb 62 82 ec bc 97 dd e5 bc
       -0.017617593 -0.0054421052 -0.028870765 -0.028059764
000020 d1 9a e4 bc 30 a6 5a bc 81 c4 d1 3c da 26 f0 bc
       -0.027905853 -0.013345286 0.025606396 -0.0293154
000030 8c 2b f9 3c dc be 30 3c 2c 87 cc 3b 40 e0 fc 3c
       0.030416273 0.010787692 0.0062416997 0.03086865
000040 61 d7 e1 3b 63 a8 80 bc 63 53 b6 3b d5 6b 53 3c
       0.0068921302 -0.015705293 0.0055641397 0.012904127
000050 af 1e 85 bc ad 18 c3 bc d3 67 19 3b b2 b8 f9 bc
       -0.016249983 -0.023815477 0.0023407831 -0.030483577
000060 8b c7 2f bb c5 18 8c 3c dd fa 71 bc 18 22 69 bc
       -0.0026821818 0.017101655 -0.014769283 -0.01422932
000070 e4 0e df bc 2c 9b 5e 3c 8e 57 d6 3c 75 83 57 bc
       -0.02722878 0.013586801 0.026164796 -0.0131539
000080 a9 f5 67 bc 08 94 94 3c 1e 2c a5 bc 32 d5 7a 3c
       -0.014157691 0.018136993 -0.020162638 0.015309619
000090 d6 4f ab 3c af c0 c8 bb db a4 e9 bb ea d5 a8 3c
       0.020912092 -0.0061264853 -0.007130248 0.020609815
0000a0 45 e0 a3 3c e7 cd f9 bc 5a 36 99 ba 1e 51 57 bc
       0.020004401 -0.03049369 -0.0011689172 -0.013141898
0000b0 43 47 2f bc 53 be e9 3b da 69 ed 3c 3f 44 ef bc
       -0.010698142 0.007133284 0.028981138 -0.029207347
0000c0 1f 2a 62 3c 4a b9 cd bc e6 d2 9a 3b 4f 44 a9 bc
       0.013803988 -0.025112767 0.004724848 -0.020662455
0000d0 f8 d2 9e 3c fe 90 85 3c 72 3a 33 3c e1 c2 81 bc
       0.019387707 0.01630449 0.010939227 -0.015839996
0000e0 49 7c 0a b9 42 f1 c8 bc be d3 b5 bc 3c 44 5b 3c
       -0.00013207005 -0.024529103 -0.022195693 0.013382968
0000f0 56 ca 6e 3c 33 e3 88 bc eb 1b e2 bc df 3d eb 3c
       0.014574608 -0.0167099 -0.027601203 0.028716026
000100 73 56 cd bc e9 a1 ee 3c e1 00 fc 3c af e4 b0 3c
       -0.025065636 0.02912994 0.030762138 0.02159342
000110 d9 01 7e bc ca 5c 40 3c b5 f3 b0 3b 34 c3 f3 bc
       -0.01550337 0.011740873 0.005400146 -0.029756166
000120 37 27 b8 bc 1a 89 f3 bc 49 5a 94 3b 92 44 67 bb
       -0.022479637 -0.029728461 0.0045273644 -0.0035288674
000130 83 82 8c 3c 20 27 28 bc b3 9f d4 bc 1f 08 6b bb
       0.017152077 -0.010263234 -0.025955057 -0.0035862995
000140 3b 4c 1e 3b 81 85 9f 3c c9 85 9c 3b 8a e4 ed 3c
       0.0024154324 0.01947284 0.0047766906 0.02903964
000150 52 98 ea bc c6 30 ec bc 65 f9 f0 bc ab c8 81 bb
       -0.028637085 -0.02883185 -0.029415796 -0.003960689
000160 b9 aa e7 bc f1 51 a4 bc 59 b6 bc bc 6b 23 96 bc
       -0.02827965 -0.020058604 -0.023036169 -0.018327435
000170 79 c1 6a bc cb a6 ac 3c 4d 25 d4 3c 95 9b 3e bc
       -0.014328354 0.021075627 0.025896693 -0.011633773
000180 e6 0e 39 bb 2f 3d 60 3c 59 ab a5 bc 1a 96 da 3c
       -0.002823764 0.013686462 -0.020223306 0.026682902
000190 2e 74 c4 bc 5f f0 d8 3c d6 50 fe bc f1 2b a1 bc
       -0.02398118 0.026481805 -0.031044405 -0.019674273
0001a0 93 ad 9f bc 31 bc 0d bc 4e db 2b bb 8c e9 d7 bc
       -0.019491946 -0.008650825 -0.0026223245 -0.026356481
0001b0 41 83 81 3c 26 c8 39 bc d4 c3 e8 3c 51 4d ee 3c
       0.015809657 -0.011339223 0.02841369 0.029089602
0001c0 9a 67 48 bc 9a 84 56 b9 dc 33 df bc e5 26 db bc
       -0.012231732 -0.00020458028 -0.027246408 -0.026751945
0001d0 da ea e5 3c eb 0c 2b 3c 4c b7 04 bc 84 0a 53 3c
       0.028066088 0.010440092 -0.008100342 0.012880925
0001e0 dd f8 c6 bc b8 f2 f3 3c a7 d6 f6 bc 4b 54 5d bc
       -0.02428859 0.029778823 -0.030131651 -0.013508867
0001f0 a4 14 8f 3c 24 ee 43 bc c1 73 c7 bc 27 f9 c7 3c
       0.017465897 -0.011958633 -0.024347188 0.024410797
000200 e2 02 b0 3c e0 5b ac 3c db 4f 55 3c 4d 46 ab bc
       0.02148575 0.021039903 0.013019527 -0.020907545
000210 48 71 97 3c 98 e0 bc bb 48 f8 a0 bc 2c b0 21 bc
       0.018486634 -0.0057640783 -0.01964964 -0.009868663
000220 d8 7c 3b 3c eb 8c a7 3c 9e 9a e1 bb e9 d4 b9 bc
       0.011443339 0.020452937 -0.006884887 -0.022684531
000230 6e bf 0c 3b fe f4 a7 bc d1 a1 b5 ba 4f 67 d2 3c
       0.0021476406 -0.020502564 -0.0013857429 0.025684027
000240 27 6b ee 3c 46 78 34 bc 22 d7 65 bc e7 fb 2c bb
       0.029103829 -0.011015004 -0.014028342 -0.0026395263
000250 54 23 40 bc 98 03 df 3c 08 65 8a bc 99 9c 95 bc
       -0.011727173 0.027223393 -0.016893879 -0.018263148
000260 a3 29 36 3c 0d f4 db bb d5 d2 a2 3c 08 e3 6c 3c
       0.011118325 -0.0067124427 0.019875923 0.014458425
000270 31 6e dd bc 1c 7e d1 ba 76 8d aa 39 0f 51 ca bc
       -0.027030082 -0.0015983018 0.00032530323 -0.024696855
000280 c3 af 9b 3b d0 58 f7 3c 53 69 b0 bc 8b 5d 8c 3c
       0.004751177 0.030193716 -0.021534598 0.017134449
000290 53 24 44 bc 8d fa b7 3c c2 08 10 bc cb 0b c8 b9
       -0.011971551 0.02245834 -0.0087911505 -0.0003815576
0002a0 b2 22 85 3c 98 53 29 3b e2 7d 30 3c fb 5e 40 bb
       0.016251896 0.002583718 0.0107722 -0.0029353488
0002b0 9a 6d 39 ba 91 ed 71 3b 14 74 4c 3c 81 ed ea 3b
       -0.0007073522 0.0036915282 0.012478847 0.007169426
0002c0 1b 6f 78 3c b8 8d 60 3c 59 65 a6 3b 17 6e 2a bc
       0.015163208 0.013705663 0.0050779996 -0.010402224
0002d0 b1 ad a7 bb 2c 38 14 bb ac c1 ef bc 2c e9 c0 bc
       -0.005117141 -0.002261649 -0.029267155 -0.023548685
0002e0 d3 55 a2 bc c6 60 d6 bc 49 48 c9 3c 5e c1 3c 3c
       -0.019816315 -0.026169192 0.024570601 0.011520712
0002f0 90 7e 94 bc 88 62 06 ba 50 89 80 3c 89 4b 9c 3b
       -0.018126756 -0.00051263766 0.015690476 0.0047697467
000300 e2 85 92 bb e0 3f 0a bc c3 39 18 3c 5f b7 fc 3b
       -0.0044715265 -0.008438081 0.009291115 0.007712289
000310 a1 b6 86 3c e7 a5 ca bb c2 51 3e 3b d2 ee 80 bc
       0.016444506 -0.006184328 0.002904043 -0.015738878
000320 d2 1d 99 bc b1 b7 c0 3a c1 94 ad bc ff f2 ff 3c
       -0.018690977 0.0014703182 -0.021189095 0.0312438
000330 27 24 77 3a 7b 4f 7c ba f4 4e b0 3b 54 d4 d1 3b
       0.00094276894 -0.00096248806 0.0053805057 0.0064034853
000340 ed 44 77 bc 73 fc ea 3b 71 7d 35 3c 31 41 2e bc
       -0.015092117 0.0071712076 0.011077271 -0.01063566
000350 9d 3b 7d 3c f3 66 80 3c 03 12 34 3b 41 ec f7 3b
       0.015456107 0.01567409 0.0027476556 0.0075660055
000360 ed 21 bc 3b 3f c7 1d 3b af 4a a4 3c 8b d0 45 3c
       0.005741349 0.0024075059 0.020055143 0.012073646
000370 d2 7a 51 bb 3e 00 bf 3c 4a 15 9c bc a2 6d 53 bc
       -0.0031964076 0.023315545 -0.01905312 -0.0129045565
000380 42 72 91 3b c7 c6 3d 3c ae 66 bc 3c 22 0f c1 bc
       0.0044386694 0.011583037 0.02299818 -0.023566786
000390 af 39 8c 3c 3e 02 a8 bc 37 30 67 bc 60 b4 bf 3c
       0.01711735 -0.020508882 -0.014110616 0.02340144
0003a0 1e ce f0 bc 86 04 c2 bc ac 7a c3 bc 7b 7b dc bc
       -0.02939516 -0.023683798 -0.023862205 -0.026914349
0003b0 10 c0 12 3b 6a fe ba bb d1 ac fd 3b 3d fc e3 3c
       0.002239231 -0.005706598 0.0077415486 0.027830238
0003c0 3a f9 1c bc fa 8e 85 3c b9 ad 84 bc 21 f6 b0 3c
       -0.009580905 0.016303528 -0.016196119 0.021601738
0003d0 d9 42 dd 3c f5 a1 c4 bc f8 5f cf 3c 21 6e 87 3c
       0.027009415 -0.024003008 0.025314316 0.016532006
0003e0 60 91 4a 3c 2b f9 65 bc b4 e2 8f bc 80 cf b2 3b
       0.012363762 -0.014036457 -0.017564155 0.005456865
0003f0 e1 d9 2e 3c 7b 7f b8 3c f8 5b f6 bc 70 04 c8 3c
       0.010672064 0.022521725 -0.030073151 0.024416178

bias f4 [64]
000000 d2 7e 38 ba 3e 3a c8 3a 16 89 de 3c 78 fd 8d 3b
       -0.00070379407 0.0015276147 0.027164977 0.0043331943
000010 e5 d1 82 bc 07 e1 18 3c 65 0e 71 3c a4 b4 7c bc
       -0.015969226 0.009330994 0.014712905 -0.015423927
000020 f3 76 00 bc 36 fa c8 3c 57 7f 72 3b 2f a1 c3 3b
       -0.00784086 0.024533372 0.003700217 0.0059701423
000030 a5 a4 d6 bc d3 b1 9d 3b b6 87 a0 3c 0e 39 eb 3b
       -0.026201556 0.004812458 0.019595962 0.0071784323
000040 e6 05 8b 3c 61 12 4f bb 65 83 96 3a 43 19 c4 bc
       0.016970586 -0.0031596648 0.001148325 -0.023937827
000050 d0 a0 36 3c bc 43 b6 bc 82 4c a3 bc 58 cd 40 3c
       0.011146739 -0.022249095 -0.019933943 0.011767708
000060 74 66 ce bc 18 9a 62 3c 50 55 84 3c e9 5d cb bc
       -0.025195338 0.013830684 0.016153961 -0.024825053
000070 08 52 f7 bc 9b 8d b0 3c 9a 99 c7 bb 10 17 6a bc
       -0.030190483 0.021551898 -0.006091309 -0.014287725
000080 18 0b 8e bb ad 3d 7a 3c b9 2f 69 bc 36 e3 2f bc
       -0.0043348186 0.015273494 -0.014232569 -0.010735324
000090 db ba 9b bc ab fe a3 3c ac 46 fa bc 6c 2e 29 3c
       -0.019009998 0.020018896 -0.030551277 0.010326009
0000a0 be 9b 89 3c 3f 2b 97 3b 50 5c 94 bc a1 02 13 bc
       0.016797896 0.0046133096 -0.018110424 -0.008972795
0000b0 e0 1b 33 bc 97 3e 81 3c fe aa 19 3c 6d 17 5f bc
       -0.010931939 0.015776915 0.009379147 -0.013616425
0000c0 55 a7 ec 3c 73 1c e4 bc 96 d3 eb b9 10 0a 11 3b
       0.028888384 -0.027845597 -0.00044980337 0.0022131242
0000d0 6d 1b 01 bd 3b 2a 91 3c d0 0e 8c bc 9d e3 8f bc
       -0.031520296 0.017720332 -0.017096907 -0.01756459
0000e0 d8 7a e7 bc da f5 ba bc 47 ac d9 3c e9 15 c8 bc
       -0.028256819 -0.02282231 0.026571406 -0.02442451
0000f0 67 6f 7f bb 1e 51 43 bc 9a 55 3a 3c 3a 88 cf 3c
       -0.0038976313 -0.011921195 0.011372948 0.025333513

weight f4 [10, 64]
000000 cd c3 e8 bd fc 74 8d 3d a3 5c cd 3d f6 a6 dd 3d
       -0.11365471 0.069070786 0.10027435 0.10822861
000010 2e e5 0e bd d9 aa 14 bc 2e 4d 28 3d 32 92 9e 3d
       -0.03488653 -0.009073936 0.04108923 0.07742728
000020 64 d6 5c 3c 69 f2 ed bd 34 7d 53 bd 30 bd d6 3b
       0.013478849 -0.11618502 -0.051633075 0.0065533146
000030 88 1c 7f bb d2 5f 91 3d 45 c6 75 bd aa c6 0f 3b
       -0.0038926918 0.070983544 -0.060003538 0.0021938481
000040 ef de 00 3e 28 b5 c0 bd d1 52 8c bd 62 40 f4 3d
       0.12585042 -0.09409553 -0.068517335 0.119263425
000050 8a 3a a6 3d fa f3 db 3d 5c cc 7d bd 9d bc 87 3d
       0.08116634 0.10739894 -0.06196247 0.06627772
000060 c9 1c ff 3d c0 8e 52 bd ec d4 16 bc 69 8c b3 bb
       0.12456662 -0.05140567 -0.009206038 -0.0054793847
000070 cd 03 b5 3d 6e cf 98 bd 1a fd de bd bb 43 88 3d
       0.088386156 -0.07461439 -0.10888119 0.066535436
000080 0a 7e db bc b1 82 ef 3b f2 8c dc 3d bb 7e be ba
       -0.026793499 0.007309281 0.10769071 -0.0014533618
000090 d1 9f e6 3d 91 4e a1 3d 1b c1 89 bd 2b 3c aa bd
       0.11260951 0.078763135 -0.06726285 -0.083122574
0000a0 16 1b 0b bd c6 61 0a bd 5f e1 0d bc 2c 73 79 3d
       -0.033961378 -0.03378465 -0.00865969 0.060900852
0000b0 95 68 68 bd 32 1f 8a bd c5 32 49 bd 78 65 74 3c
       -0.056740362 -0.06744231 -0.049120683 0.01491677
0000c0 33 3b db bc 08 c3 ba 3c d9 cd a2 bd 86 c0 b1 3d
       -0.026761627 0.022798076 -0.079494186 0.08679299
0000d0 93 45 de 3d 35 ef e2 bd aa b4 86 bd b0 fd a4 bb
       0.10853114 -0.11080781 -0.06577428 -0.0050351247
0000e0 40 1a bf bd 02 42 33 3d 19 63 e5 3d 4b 3e 72 bd
       -0.09331179 0.04376412 0.11200542 -0.05914144
0000f0 96 28 e6 3d 64 b4 47 bd 50 48 84 3d 8b ed 4e 3d
       0.1123821 -0.04875602 0.06459105 0.050519507
000100 bb 25 2e bd 67 aa c8 bc 91 bf ec bd 33 9f b8 bb
       -0.04251645 -0.024495317 -0.11559976 -0.0056342124
000110 91 ca 9f bd 67 b2 cb bd 87 62 d8 3d 5a 50 b0 bc
       -0.07802308 -0.09946137 0.105656676 -0.02152269
000120 50 07 a3 3d d3 8f 94 bd c0 c3 ed bd 27 97 73 3d
       0.07960379 -0.07253995 -0.11609602 0.059470322
000130 7d 5c fe bd b8 ee ce 3d 33 f1 fa 3d 23 e3 d3 bd
       -0.124199845 0.10104126 0.12253036 -0.10346057
000140 77 8b 7b 3d d7 4b d0 bd f6 60 e9 bd e9 0e ec 3d
       0.0614123 -0.10170715 -0.11395447 0.115262814
000150 51 30 c3 bd d7 f5 9d 3c 92 92 be bd 50 33 c7 39
       -0.095307 0.019282265 -0.093053 0.0003799447
000160 41 f2 e3 39 97 3a 70 bd 88 6d 6a bd 55 6d e8 3d
       0.00043477307 -0.058649626 -0.057233363 0.113489784
000170 e1 7b a4 bd 74 31 db bd 63 dd 6d 3d 8a e5 6a bd
       -0.080314405 -0.10702792 0.05807246 -0.05734781
000180 3c 2f 17 3d f2 29 3e bd 38 b7 e3 3c be 4b fe 3d
       0.03691028 -0.04642672 0.027797326 0.124167904
000190 61 c8 b2 3c 7d 84 b6 3d 38 01 67 bd 50 3e c9 3d
       0.021824064 0.08911989 -0.056397647 0.09826338
0001a0 11 19 18 bd e6 47 d3 bc 69 5a 4f bd a0 79 d6 3d
       -0.03713328 -0.02579112 -0.05062333 0.10472417
0001b0 ba 10 71 3d b3 ae e4 bc 56 a3 7a 3d 4f 2d db bd
       0.058853842 -0.027915334 0.061190926 -0.10702001
0001c0 fd d7 34 bd d5 c9 2e bc 35 56 7e 3b e8 be 9f 3d
       -0.044151295 -0.010668238 0.0038808708 0.07800084
0001d0 83 14 fd 3d b1 c8 87 3d 5d a9 e6 3d f7 a6 ed bd
       0.12357428 0.06630076 0.11262772 -0.11604112
0001e0 0b 6b fc 3d ef 74 e9 bd e1 b6 c5 3c 3f e5 59 bd
       0.12325104 -0.113992564 0.024135055 -0.05319714
0001f0 5b a3 a7 bd 8f 4d 29 bd 31 f9 0d bd 90 62 b6 bc
       -0.081854545 -0.04133373 -0.034661476 -0.022263795
000200 2d dd 29 3c 1b 8a e4 bc b9 ad 90 bd 06 64 c9 bd
       0.010367674 -0.027897885 -0.07064385 -0.09833531
000210 6d 45 67 bd c8 6e f2 bd e3 3c fe bc 88 a9 71 3d
       -0.056462694 -0.11837536 -0.031034892 0.05899957
000220 6c 68 b5 bd 58 22 5e bd 24 f9 87 bc 6c 85 7a bd
       -0.088578075 -0.05423197 -0.016598292 -0.061162397
000230 b7 3e 87 bd b4 0a a3 bd bf 99 fc bd f0 d4 e7 3d
       -0.06603759 -0.07961026 -0.12334012 0.113199115
000240 8f 85 b0 3d 07 7d f3 bd c7 bb 83 3b b0 1f 56 3d
       0.08619224 -0.118890814 0.0040201875 0.052276313
000250 b0 51 bf bd 94 58 d2 3d be 68 c1 3c 19 51 35 3d
       -0.093417525 0.10270801 0.023609515 0.044266794
000260 fc 8e 4a bd 10 86 de bd 4f f1 24 bd 36 76 6d 3b
       -0.049452767 -0.10865414 -0.040269192 0.003623379
000270 f9 d6 7d bb 11 72 91 bd a1 1b 7b bd 32 70 0a 3b
       -0.003873287 -0.071018346 -0.061305646 0.0021124003
000280 69 fa 1e 3d c8 6b a1 bd 45 12 52 bd 8f 22 c0 3d
       0.03881303 -0.07881886 -0.051286954 0.093815915
000290 4e f2 6e bd 00 99 bc bc a4 36 b4 bd 48 25 fb 3d
       -0.05833655 -0.023022175 -0.08799484 0.1226297
0002a0 6d 29 12 bd a3 1a df 3d 21 16 95 3d 88 27 aa bd
       -0.035684038 0.108937524 0.072796114 -0.08308321
0002b0 12 01 87 3d 65 50 e7 3d 83 70 dc bd 54 ea d4 3d
       0.06592001 0.11294631 -0.107636474 0.10396257
0002c0 95 0d 52 3d 6a 21 b8 3d a9 45 b3 bc 58 0c 01 bd
       0.051282484 0.08990748 -0.021883802 -0.031505913
0002d0 3d 0b 8f 3d 1e 61 b3 bd 0a 46 c5 bd c7 24 21 3c
       0.069845654 -0.08758758 -0.096324995 0.009835429
0002e0 c5 90 51 bd e6 2c c2 bd 43 16 ef 3b 13 e7 57 bd
       -0.051163454 -0.0948122 0.007296355 -0.052710604
0002f0 dc a7 9e 3c 36 8a 3e 3c e1 5b de bc 75 f6 8d 3d
       0.019367151 0.011629632 -0.02714342 0.069317736
000300 94 6b c9 3d 4d bd 71 bd aa 05 c8 3d 54 df ca bd
       0.09834972 -0.059018422 0.09766705 -0.09905878
000310 1c 8b 85 3d 10 e6 44 bd 1a 7e 48 ba 9b 4d 6d bd
       0.06520674 -0.048070967 -0.0007648185 -0.05793534
000320 00 fb 40 bd 97 05 0b bc 41 2d a2 bd 8b 88 d1 bd
       -0.047114372 -0.008485219 -0.07918788 -0.10231122
000330 67 d3 45 3d 63 3b 47 3d a2 9f c3 bc 45 c5 cb 3c
       0.048297312 0.04864062 -0.02387983 0.024874339
000340 56 a1 c0 bc 42 e4 d5 3d 09 b8 99 bc 6b cf e3 bd
       -0.023514431 0.10443927 -0.018764513 -0.11123546
000350 92 00 76 bd 87 35 5c 3d 06 57 36 bd 35 4a a2 3d
       -0.060059138 0.053761985 -0.044516586 0.0792431
000360 a1 96 89 bd 35 8d dc 3d 7f 08 d4 3a 99 44 fd 3d
       -0.06718183 0.107691206 0.0016176848 0.123665996
000370 1e 1d 5a bd 03 ab 11 3c 18 2b 0f bd 43 1d 22 bd
       -0.053250425 0.00889087 -0.034953207 -0.039578687
000380 c9 57 10 3d 6c 9b 99 bd aa 60 f9 bd 1b a6 cf bc
       0.03523997 -0.075003475 -0.1217664 -0.02534776
000390 3e 0b 8d bd a5 12 b2 bc 0a 74 f5 3d 04 e8 8e bd
       -0.0688691 -0.021737406 0.11985023 -0.06977847
0003a0 ec bd 24 3c 4c 34 57 3d 4e 42 98 3d e9 d2 c7 bd
       0.0100550465 0.05254011 0.074345216 -0.09757025
0003b0 9a bc 0d 3d ad 6b c7 bd 1e 3b 3d 3d 5c 15 83 3c
       0.034603693 -0.097373344 0.046198957 0.016001396
0003c0 3e ac 97 3d f6 43 c2 bd 97 7f 30 3d 56 a2 a7 3d
       0.074058995 -0.09485619 0.04309043 0.0818526
0003d0 61 2a 04 bb a0 3b b9 3d 13 c5 ca 3d d3 71 1d bd
       -0.0020166861 0.09044576 0.0990087 -0.03843863
0003e0 19 1d 32 bd a8 cc be 3d 3f cc fe 3c 57 71 90 bd
       -0.04348478 0.09316379 0.031103252 -0.07052868
0003f0 42 dc ab bb 82 4d 0c bb 98 39 ed 3d fb 7f 83 bd
       -0.0052447626 -0.0021408503 0.11583251 -0.06420895

bias f4 [10]
000000 32 5a a5 bc 28 0c 09 3d 97 59 70 3d da 48 b6 bd
       -0.02018461 0.03345886 0.05867919 -0.08900614
000010 83 31 93 3c 05 35 98 3d 67 01 ad bd cc b6 57 3d
       0.017967945 0.07431988 -0.08447533 0.052664563
000020 fe 75 8e 3d dc 0f df 3c
       0.06956099 0.027229242
